HW6/lightning_logs/version_0/checkpoints/epoch=5-step=366.ckpt (torch, 513472 bytes, 33 tensors)

model.0.weight f4 [1, 3, 1, 1]
0.22637656 0.2293228 0.23466294
00000000: 42cf 673e 99d3 6a3e 7b4b 703e

model.2.weight f4 [128, 1, 3, 3]
0.0005355322 0.0005489365 0.00052802585 0.0005401535 0.0005521479 0.0005526498 0.00053334207 0.00054655765
0.0005490852 0.09499402 0.0954254 0.09329236 0.095619895 0.09760393 0.095507726 0.09372959
0.09576809 0.09516032 -2.4596898e-09 -1.5119538e-10 6.8053896e-10 -6.784125e-09 -8.720765e-11 3.9265555e-09
-8.172885e-10 -6.018194e-09 5.3806524e-09 -7.8279946e-08 -1.9180362e-07 -8.690432e-08 -1.4991909e-07 -4.5811106e-07
-4.3990465e-07 -4.184845e-07 -4.749671e-08 -6.039841e-08 1.0782632e-08 -9.7709165e-09 -1.2010891e-08 -1.0063041e-08
1.4746719e-08 4.3660053e-09 3.4865721e-09 4.098834e-09 -1.0035866e-08 -5.0950804e-09 9.967739e-10 1.6285641e-09
5.7730154e-09 6.858081e-09 1.8483614e-09 2.838384e-09 2.7684297e-09 4.8947153e-09 3.0301598e-07 3.02202e-07
6.683948e-07 5.588692e-07 2.817327e-07 1.5088416e-07 4.4656306e-07 -2.3231053e-07 3.1692142e-07 3.0598873e-08
-7.524008e-08 -5.3292684e-08 -3.211402e-08 -4.1649186e-09 -1.0065047e-07 1.0220054e-08 7.5376036e-08 2.638251e-07
-4.8143993e-06 1.1727866e-05 -5.084159e-06 6.345556e-06 -3.895158e-06 -3.5216967e-06 1.517791e-05 8.14531e-06
-7.714873e-06 3.294945e-08 -3.5799715e-08 9.780661e-08 2.656966e-08 -1.9742215e-08 -1.3577603e-08 -2.3669925e-08
2.3681544e-08 1.6362101e-09 -2.125718e-09 -3.146375e-09 1.2341989e-09 2.257787e-09 9.957368e-10 -4.795962e-10
2.098226e-09 -2.9868372e-09 1.857812e-09 1.9211582e-08 1.0110179e-08 5.6482996e-08 3.5628283e-09 4.595564e-08
-1.3282863e-08 1.782471e-08 -1.995886e-09 -1.4391412e-08 3.3459115e-09 -9.029758e-10 2.4455433e-09 -5.0781546e-10
-2.0817355e-10 -9.89061e-10 2.092187e-09 2.345792e-10 1.8987256e-09 7.219871e-10 9.603204e-10 4.4029952e-10
-4.3862447e-09 1.3209236e-09 2.1703779e-09 3.4612508e-09 3.659531e-09 1.4275556e-09 1.9166269e-07 -1.3184996e-07
1.3601587e-07 -2.7353e-07 -1.1012396e-08 -3.6643544e-07 1.6279394e-07 4.7606267e-07 -1.6397695e-07 -2.528447e-09
9.597017e-09 2.0148507e-09 1.223838e-08 -9.155016e-09 2.1144647e-08 2.1964654e-08 2.3493112e-09 1.393288e-09
1.100681e-08 -3.791934e-09 1.3047446e-08 -1.5467371e-08 -1.4226003e-08 3.5039747e-08 -8.428483e-09 1.4451447e-09
2.8592995e-09 -2.2364881e-07 2.4066276e-07 -1.0482265e-07 5.3719344e-07 -1.8196948e-07 8.744958e-08 -2.6368636e-07
-5.2638643e-07 -1.6624647e-07 -3.219664e-07 -1.9936638e-07 -2.8501914e-08 -3.1060952e-07 4.6812045e-07 -3.2171343e-07
6.817396e-07 7.541808e-07 -3.7063327e-07 -9.790083e-08 -1.5555317e-08 1.14411264e-07 -1.6478507e-08 3.3073622e-08
2.1939095e-10 -7.754498e-09 -1.774608e-08 1.2233275e-07 -0.00010682762 -9.860678e-05 -0.00019770596 -0.00016648587
-0.00016411979 -0.0001461897 0.0001848122 0.00013763628 -6.121754e-05 -2.2021285e-07 3.9026254e-08 1.7515327e-07
-4.1164427e-08 1.699075e-07 1.202957e-07 -2.5615122e-08 -1.4607272e-07 2.213236e-07 8.221966e-05 7.9981764e-05
7.790224e-05 7.608572e-05 8.784281e-05 7.605922e-05 8.084207e-05 7.620415e-05 8.358646e-05 -9.827555e-06
-7.714949e-06 2.1193446e-06 -3.2790579e-06 -1.0837281e-05 -5.7305633e-06 -3.372626e-06 5.7398024e-06 -4.400326e-06
2.5801784e-08 -4.2187956e-08 -3.7165524e-08 3.4828922e-08 2.7221313e-08 6.302686e-08 3.7841474e-08 7.000453e-08
-2.159969e-08 -2.7148351e-08 2.664023e-08 -5.6415562e-08 2.7542072e-08 -2.3323276e-08 -2.1197433e-08 -4.028625e-08
-2.3518133e-08 -1.8514385e-08 -1.0539004e-07 -1.1408018e-08 -3.8590304e-08 1.2191285e-07 -8.366857e-09 -1.7239383e-08
1.635905e-08 -1.5226373e-08 -4.0700957e-08 6.958061e-09 5.0740314e-09 5.3569043e-09 -1.0323557e-08 1.8194158e-09
-6.0749166e-09 -4.0627164e-09 4.357946e-09 -8.2068805e-09 -1.91028e-06 -3.6899362e-06 3.7122802e-06 6.646232e-06
00000000: f562 0c3a 81e6 0f3a 376b 0a3a 1699 0d3a
00000010: 05be 103a b3df 103a fbcf 0b3a dd46 0f3a
00000020: 7cf0 0f3a 3a8c c23d 646e c33d 1110 bf3d
00000030: 5dd4 c33d 92e4 c73d 8e99 c33d 4df5 bf3d
00000040: 0f22 c43d 6ae3 c23d 5207 29b1 b73d 26af
00000050: ac10 3b30 cb19 e9b1 8bc5 bfae 59ea 8631
00000060: 91a7 60b0 98c8 ceb1 b8e0 b831 db1a a8b3
00000070: 94f2 4db4 28a0 bab3 72f9 20b4 4ef2 f5b4
00000080: 092c ecb4 12ac e0b4 2fff 4bb3 61b4 81b3
00000090: 843e 3932 f2dc 27b2 7558 4eb2 b9e1 2cb2
000000a0: c258 7d32 ca03 9631 6d98 6f31 bad5 8c31
000000b0: 356a 2cb2 cd10 afb1 ddfe 8830 01d4 df30
000000c0: fb5b c631 52a4 eb31 6f09 fe30 610d 4331
000000d0: bb3e 3e31 5f2e a831 33ae a234 543e a234
000000e0: be6b 3335 3305 1635 0c41 9734 b902 2234
000000f0: 29bf ef34 0871 79b4 5925 aa34 d16b 0333
00000100: ac93 a1b3 ede3 64b3 bded 09b3 031b 8fb1
00000110: 2e25 d8b3 4694 2f32 6ade a133 d8a3 8d34
00000120: 608b a1b6 cdc2 4437 9898 aab6 e9eb d436
00000130: 27b3 82b6 4a56 6cb6 a1a4 7e37 d7a7 0837
00000140: 216f 01b7 4e84 0d33 34c2 19b3 c109 d233
00000150: 4d3b e432 9795 a9b2 ee42 69b2 b752 cbb2
00000160: 446c cb32 06e1 e030 0714 12b1 9d37 58b1
00000170: 83a0 a930 6927 1b31 60da 8830 95d4 03b0
00000180: 6230 1031 ff40 4db1 f355 ff30 b706 a532
00000190: 0ab1 2d32 b697 7233 f0d5 7431 c360 4533
000001a0: a632 64b2 f41c 9932 ff27 09b1 193e 77b2
000001b0: e6ed 6531 4635 78b0 740e 2831 5696 0bb0
000001c0: a5e3 64af 7eef 87b0 25c6 0f31 16f6 802f
000001d0: bc7a 0231 5375 4630 45fc 8330 a60e f22f
000001e0: d1b5 96b1 de8b b530 b125 1531 f8da 6d31
000001f0: 267b 7b31 a633 c430 d7cb 4d34 a492 0db4
00000200: c20b 1234 add9 92b4 0831 3db2 81ba c4b4
00000210: 75cc 2e34 8e95 ff34 a411 30b4 e9c0 2db1
00000220: 21e0 2432 a175 0a31 f740 5232 3048 1db2
00000230: 92a1 b532 c9ac bc32 8571 2131 f77d bf30
00000240: 7618 3d32 344a 82b1 4627 6032 1cdd 84b2
00000250: 9f66 74b2 9c7e 1633 dccc 10b2 829e c630
00000260: 547d 4431 1e24 70b4 7034 8134 dc1a e1b3
00000270: a733 1035 6463 43b4 eacb bb33 c790 8db4
00000280: 004d 0db5 7b81 32b4 bada acb4 6a11 56b4
00000290: 5fd4 f4b2 d9c1 a6b4 fc51 fb34 f5b7 acb4
000002a0: ca00 3735 e972 4a35 73fb c6b4 8d3d d2b3
000002b0: 819e 85b2 42b2 f533 9f8c 8db2 d50c 0e33
000002c0: 1039 712f a538 05b2 0b70 98b2 925a 0334
000002d0: a408 e0b8 1dcb ceb8 4a4f 4fb9 b692 2eb9
000002e0: 9217 2cb9 804a 19b9 26ca 4139 7552 1039
000002f0: eb61 80b8 a673 6cb4 d29d 2733 c411 3c34
00000300: c4cc 30b3 d16f 3634 a12a 0134 4008 dcb2
00000310: 2ad8 1cb4 f8a4 6d34 586d ac38 e2bb a738
00000320: 725f a338 3690 9f38 4038 b838 fc81 9f38
00000330: c189 a938 cbcf 9f38 244b af38 07e1 24b7
00000340: 746f 01b7 103a 0e36 c90d 5cb6 c4d1 35b7
00000350: 2a49 c0b6 4655 62b6 8798 c036 83a6 93b6
00000360: b9a2 dd32 2632 35b3 ed9f 1fb3 ce96 1533
00000370: 4dd4 e932 6259 8733 2487 2233 6655 9633
00000380: 388a b9b2 db33 e9b2 7cd6 e432 914d 72b3
00000390: a895 ec32 6d58 c8b2 a615 b6b2 3307 2db3
000003a0: ec04 cab2 9009 9fb2 ca52 e2b3 fefc 43b2
000003b0: 7dbe 25b3 26e7 0234 d4bd 0fb2 ce15 94b2
000003c0: ee85 8c32 26cb 82b2 2dcf 2eb3 c013 ef31
000003d0: a757 ae31 d40f b831 7c5b 31b2 010f fa30
000003e0: 88bb d0b1 0898 8bb1 e6bc 9531 3efe 0cb2
000003f0: 5c32 00b6 9fa0 77b6 7d20 7936 b302 df36

model.2.bias f4 [128]
0.00069906353 0.121250406 5.7627876e-09 -1.17339546e-07 -1.0446966e-08 7.71346e-09 4.0964508e-07 -1.9385347e-07
1.6641392e-05 -5.159433e-08 4.6373205e-10 2.39519e-08 -1.7875813e-09 -2.5193794e-10 -2.1257449e-07 -4.1353436e-09
2.0495623e-09 -2.3530275e-07 -2.845324e-07 -1.260087e-08 -0.00022625228 2.783807e-07 0.000110824 -1.30846975e-05
5.160036e-08 -2.723442e-08 -1.0229059e-07 -1.0802017e-08 3.3598185e-06 2.025794e-08 7.002376e-08 -1.3039007e-09
-1.1084742e-07 1.4617308e-09 -1.5424623e-08 -7.26423e-08 3.993434e-06 5.036205e-06 3.7051866e-09 3.1646184e-08
-2.0855453e-09 -4.050543e-06 1.7366014e-08 -2.7568954e-09 -2.494591e-07 0.008260289 2.7849565e-06 2.8897906e-08
9.149208e-05 0.0023313586 -0.0002698854 -1.91695e-09 0.10371404 0.033438373 0.041972026 -3.6790282e-06
0.09968592 7.186064e-07 1.7536901e-09 -1.0796692e-09 -1.5262506e-08 0.0069919 2.0661028e-07 -1.3411147e-07
-1.4797445e-07 -4.8322204e-09 1.2072577e-07 -6.0217173e-09 -1.1556484e-09 -4.270952e-08 -4.9691664e-07 0.094475366
6.633371e-09 4.8346784e-08 1.7877156e-07 9.6688296e-11 -2.6050537e-07 4.8687144e-07 0.01707186 -7.9278124e-08
3.242239e-08 3.434346e-08 -5.9533964e-09 2.9385254e-07 3.8615658e-10 9.093014e-05 -6.7918677e-06 -1.533969e-09
-3.6837977e-07 0.0010455038 1.0594588e-08 -3.8852294e-10 -2.9214232e-07 0.0011886476 -3.6569575e-06 1.120308e-06
-0.0062958198 -1.6716636e-07 1.8509278e-08 2.0089294e-05 -1.6741462e-08 0.05687188 3.1703987e-10 -7.056441e-08
9.485781e-06 -1.9902776e-08 8.212639e-08 -5.944333e-08 -2.3796942e-09 3.1311924e-09 2.6948685e-08 6.771982e-07
4.175046e-09 0.0029772697 -0.0045042317 -1.4561176e-08 4.5527755e-09 -5.294113e-08 -1.0702173e-08 0.032870475
-9.8524396e-08 0.0037163657 8.3809454e-08 -1.7441471e-07 0.10603693 -7.8973794e-10 7.622359e-08 -3.051646e-08
00000000: 5c41 373a 2252 f83d 0402 c631 19fc fbb3
00000010: 3e7a 33b2 2884 0432 31ed db34 0926 50b4
00000020: 1e99 8b37 9198 5db3 7cf0 fe2f c9be cd32
00000030: edae f5b0 1d81 8aaf 0840 64b4 de16 8eb1
00000040: 48d8 0c31 87a7 7cb4 d6c1 98b4 367b 58b2
00000050: 223e 6db9 5a74 9534 2f6a e838 5986 5bb7
00000060: 329f 5d33 1ff1 e9b2 d9aa dbb3 c693 39b2
00000070: 3e79 6136 ae03 ae32 f85f 9633 ed34 b3b0
00000080: 030b eeb3 15e6 c830 1b7f 84b2 87ff 9bb3
00000090: 56ff 8536 acfc a836 559e 7e31 59eb 0733
000000a0: 4d51 0fb1 e6e9 87b6 452c 9532 d173 3db1
000000b0: 66ed 85b4 2a56 073c 30e5 3a36 2b3b f832
000000c0: 70df bf38 b5c9 183b 687f 8db9 57bb 03b1
000000d0: 0768 d43d adf6 083d dcea 2b3d 39e5 76b6
000000e0: 2228 cc3d 41e6 4035 7c06 f130 7c63 94b0
000000f0: 9b1a 83b2 4f1c e53b 9ad8 5d34 4800 10b4
00000100: e8e2 1eb4 a908 a6b1 d9a0 0134 96e7 ceb1
00000110: c3d4 9eb0 9d6f 37b3 da63 05b5 4d7c c13d
00000120: c0eb e331 daa5 4f33 5af4 3f34 ac9e d42e
00000130: 96db 8bb4 8db1 0235 49da 8b3c 9c3f aab3
00000140: cb40 0b33 0981 1333 a18e ccb1 c9c2 9d34
00000150: b54a d42f bfb1 be38 b3e5 e3b6 bcd3 d2b0
00000160: bbc5 c5b4 4909 893a 7e03 3632 be97 d5af
00000170: bcd7 9cb4 65cc 9b3a 0d6a 75b6 7d5d 9635
00000180: 2a4d cebb 577e 33b4 55fe 9e32 6e85 a837
00000190: ddce 8fb2 7df2 683d 654b ae2f 3289 97b3
000001a0: 1f25 1f37 abf6 aab2 765d b033 a24e 7fb3
000001b0: 0688 23b1 852c 5731 c97c e732 b5c8 3535
000001c0: 1874 8f31 4c1e 433b 3c98 93bb bb28 7ab2
000001d0: a36e 9c31 6361 63b3 a8dc 37b2 31a3 063d
000001e0: 5c94 d3b3 458e 733b bcfa b333 c046 3bb4
000001f0: e429 d93d de14 59b0 5db0 a333 3411 03b3

model.5.weight f4 [32, 128, 3, 3]
-6.427639e-05 -6.4941974e-05 -6.32191e-05 -6.307277e-05 -6.680821e-05 -6.372664e-05 -5.5573e-05 -6.966229e-05
-6.531426e-05 0.0034022883 0.0034086325 0.0033090634 0.003413066 0.003429217 0.0033478935 0.003342731
0.0034007968 0.0033038782 -6.2922845e-10 -3.0478922e-09 1.1043462e-09 -2.6412759e-09 7.0818615e-11 -1.1704561e-09
-1.2182144e-09 8.846232e-10 -9.786242e-10 4.1680642e-07 -1.043033e-08 -8.1438594e-07 -8.9085773e-07 -3.791057e-07
8.9997434e-07 -8.2538844e-07 -8.309693e-07 9.3177556e-07 9.170293e-10 1.801944e-10 -3.3922282e-10 1.6017249e-09
-4.489802e-10 3.1391244e-12 3.3828737e-10 -3.8353598e-11 2.84084e-09 -5.9914423e-10 5.393277e-10 5.154597e-10
-5.7932015e-10 -4.981785e-12 -7.239261e-10 1.350899e-10 -8.234794e-10 2.8748293e-10 1.8316507e-08 3.4438077e-08
-5.013876e-09 -2.5246926e-08 -1.9110692e-08 -4.1879944e-09 -1.3545531e-09 9.417667e-09 -4.2640576e-09 1.2952925e-07
1.2353969e-07 4.2355428e-08 1.1125013e-07 1.2974267e-07 1.2750707e-08 -1.8697898e-08 -1.1979412e-08 9.642069e-09
5.001626e-08 -3.7590667e-07 1.4012478e-07 -3.9866902e-07 2.0485254e-08 1.3550658e-06 1.8037164e-07 -8.168094e-08
1.3850597e-07 -2.1338922e-09 2.3446916e-09 4.5784532e-10 9.0003494e-10 6.7742295e-10 -4.2025072e-10 1.1462971e-09
-4.3081956e-09 -4.677997e-10 -7.8278306e-10 9.200069e-10 -4.844253e-10 4.996984e-10 3.450962e-13 -1.0205168e-10
-3.1752026e-10 -4.6082516e-11 6.7555317e-10 -6.7510744e-09 5.9306104e-10 -5.895675e-09 -3.6167296e-09 3.5285003e-10
2.4641942e-09 -2.0395861e-10 5.306482e-09 -1.986893e-10 2.079233e-09 4.571575e-09 -4.713008e-09 9.369887e-09
-4.580768e-09 -9.740659e-09 -3.1482332e-09 1.334031e-09 9.671415e-09 1.2057e-10 1.6924703e-10 2.6940356e-10
-1.4605547e-09 -4.3057615e-09 7.239155e-10 -1.326728e-10 4.171341e-09 1.8670507e-09 9.905097e-09 -1.1529115e-08
7.813354e-09 -1.1127551e-08 -9.149796e-09 1.4747179e-08 1.2236277e-08 2.1887518e-09 -5.6606564e-09 -3.367848e-10
8.343511e-09 -1.0372893e-10 5.658988e-10 -5.208425e-10 7.798728e-11 2.5969167e-09 1.741058e-09 1.945047e-09
-2.4767561e-09 1.8321784e-10 -1.9599017e-10 3.4435602e-10 3.570383e-10 -2.044143e-09 -9.1512586e-10 4.6269877e-11
7.705344e-10 -2.0409696e-07 -1.2775033e-07 -1.5090576e-07 -3.4918264e-07 -3.304638e-07 -1.5833756e-07 -5.326022e-08
-1.7226887e-08 -3.7751793e-08 -5.0833496e-08 4.6174424e-09 -5.8696723e-09 -1.7876255e-09 4.789322e-09 -3.122362e-08
-5.9956116e-09 3.340989e-09 1.0700288e-09 2.1001616e-08 3.2629053e-08 3.0827618e-08 1.0252237e-08 3.3745504e-08
8.967015e-09 9.126778e-09 3.0407776e-08 -2.453368e-08 -3.7469863e-06 -7.6172637e-06 9.881469e-06 1.0610012e-05
6.5485797e-06 -9.064005e-06 7.941252e-06 7.489657e-06 -6.859276e-06 -1.1946737e-08 -1.2326489e-08 4.8956633e-08
-1.4655097e-08 -1.02355635e-08 2.9525857e-08 -4.9655626e-09 2.49253e-08 1.690205e-08 -1.4535783e-05 -1.4698347e-05
-1.7525128e-05 -9.721613e-06 -1.6298645e-05 -1.5649082e-05 -1.0024906e-05 -1.5914546e-05 -1.1211105e-05 -9.8938e-08
-1.7540536e-07 1.6378638e-07 2.1207912e-08 -8.463088e-08 -1.1334472e-07 -1.5622733e-07 6.505828e-08 -4.1734324e-08
1.9404667e-10 -3.7336427e-09 1.874047e-09 1.5589593e-09 -3.1072767e-10 -1.4495646e-10 9.035655e-10 -2.3667435e-09
2.8197715e-09 -8.7604485e-10 -1.6294978e-09 1.4622941e-09 5.3945115e-10 -2.606707e-09 -4.564434e-09 -1.4862359e-09
-1.175669e-09 -5.3303277e-09 -5.277731e-09 -5.08461e-09 3.2623868e-09 2.442265e-10 -2.4742226e-09 -4.7258997e-09
4.9273727e-09 -4.868194e-11 -2.8037854e-09 -3.0654213e-09 1.4469039e-09 -3.5491148e-09 1.3798525e-09 -4.0498846e-10
-4.2937094e-09 -1.3321811e-09 -1.0221896e-09 -1.3827358e-09 4.982094e-10 -1.9634766e-07 -3.1994196e-07 1.3278571e-07
00000000: 20cc 86b8 7531 88b8 7f94 84b8 f045 84b8
00000010: 621b 8cb8 fba4 85b8 0e17 69b8 a817 92b8
00000020: 54f9 88b8 edf8 5e3b 5d63 5f3b dfdc 583b
00000030: bfad 5f3b b7bc 603b 5568 5b3b b811 5b3b
00000040: e7df 5e3b e185 583b 04f6 2cb0 1673 51b1
00000050: bac7 9730 d181 35b1 56bb 9b2e c3dd a0b0
00000060: 1c6e a7b0 d329 7330 4780 86b0 70c5 df34
00000070: 1431 33b2 2d9c 5ab5 4723 6fb5 e487 cbb4
00000080: c495 7135 4390 5db5 c70f 5fb5 211f 7a35
00000090: 3312 7c30 3720 462f 5e7d baaf af23 dc30
000000a0: 58d4 f6af 70e5 5c2c b7f9 b92f 50ae 28ae
000000b0: 9638 4331 07b1 24b0 d03f 1430 40b0 0d30
000000c0: 083e 1fb0 ee47 afac c5fd 46b0 6d88 142f
000000d0: 365b 62b0 a00b 9e2f 6d56 9d32 11e9 1333
000000e0: 8546 acb1 94de d8b2 db28 a4b2 fde5 8fb1
000000f0: 1a2b bab0 56cb 2132 0c83 92b1 bb14 0b34
00000100: 55a6 0434 49ea 3533 68e8 ee33 654f 0b34
00000110: 340e 5b32 1d9d a0b2 03ce 4db2 45a6 2532
00000120: 76d1 5633 38d0 c9b4 3575 1634 a708 d6b4
00000130: 8df7 af32 b5df b535 2eac 4134 9268 afb3
00000140: 3bb8 1434 d4a3 12b1 4020 2131 00b4 fb2f
00000150: 5466 7730 6735 3a30 0809 e7af be8b 9d30
00000160: 4a07 94b1 7a96 00b0 762b 57b0 bbe3 7c30
00000170: 6628 05b0 265b 0930 9b45 c22a fd69 e0ae
00000180: 018f aeaf 4dac 4aae d4b1 3930 14f7 e7b1
00000190: f604 2330 e892 cab1 2e8a 78b1 3afb c12f
000001a0: 9056 2931 3f41 60af 4f54 b631 1176 5aaf
000001b0: 41e2 0e31 0014 9d31 0ff0 a1b1 33f9 2032
000001c0: dd64 9db1 df57 27b2 4e58 58b1 0b59 b730
000001d0: 5527 2632 7091 042f ce16 3a2f 2e1b 942f
000001e0: b3bc c8b0 e1f1 93b1 06fd 4630 13e0 11af
000001f0: 8153 8f31 814d 0031 142b 2a32 9611 46b2
00000200: 7f3b 0632 7d2b 3fb2 3a31 1db2 c75a 7d32
00000210: b737 5232 ee68 1631 a97f c2b1 3f26 b9af
00000220: 2657 0f32 321a e4ae 968d 1b30 082b 0fb0
00000230: f07e ab2e 7175 3231 084a ef30 a1a9 0531
00000240: 8e33 2ab1 3d73 492f 547e 57af cd4f bd2f
00000250: ac48 c42f f278 0cb1 428c 7bb0 407f 4b2e
00000260: 8acd 5330 bf25 5bb4 be2b 09b4 a908 22b4
00000270: 4c77 bbb4 996a b1b4 7f03 2ab4 3bc0 64b3
00000280: 53fa 93b2 8924 22b3 0554 5ab3 74a7 9e31
00000290: 2fae c9b1 7bb0 f5b0 528f a431 bc1a 06b3
000002a0: f501 ceb1 4d97 6531 4b10 9330 0b67 b432
000002b0: 0624 0c33 5367 0433 d121 3032 93ef 1033
000002c0: 590d 1a32 fecb 1c32 b499 0233 22be d2b2
000002d0: bc74 7bb6 cc97 ffb6 96c8 2537 a801 3237
000002e0: dfbb db36 9b11 18b7 6b3b 0537 aa4f fb36
000002f0: bb28 e6b6 4e3e 4db2 79c4 53b2 6344 5233
00000300: ccc5 7bb2 7cd8 2fb2 0ca0 fd32 8d9d aab1
00000310: 501b d632 0030 9132 b6de 73b7 eb98 76b7
00000320: ed02 93b7 031a 23b7 13b9 88b7 2646 83b7
00000330: a530 28b7 3a80 85b7 5417 3cb7 be77 d4b3
00000340: 0f57 3cb4 42dd 2f34 b12c b632 51be b5b3
00000350: eb67 f3b3 71bf 27b4 2bb6 8b33 603f 33b3
00000360: 485b 552f 7849 80b1 95c8 0031 0143 d630
00000370: 08d3 aaaf 9e61 1faf c55e 7830 31a4 22b1
00000380: f2c5 4131 2dce 70b0 dbf4 dfb0 e6f9 c830
00000390: 8048 1430 ad21 33b1 30d5 9cb1 4744 ccb0
000003a0: 2d95 a1b0 0f26 b7b1 6a57 b5b1 b4b4 aeb1
000003b0: 8430 6031 d343 862f fc06 2ab1 7461 a2b1
000003c0: a14d a931 fe1a 56ae b7ac 40b1 76a7 52b1
000003d0: 68dc c630 b0e4 73b1 3ea5 bd30 0fa5 deaf
000003e0: de87 93b1 f517 b7b0 197d 8cb0 b10a beb0
000003f0: 5ff2 0830 a2d3 52b4 7dc4 abb4 dc93 0e34

model.5.bias f4 [32]
0.0050155497 1.9600466e-09 -1.5983541e-06 0.0017813583 0.022522781 3.7398944e-08 -9.5122226e-07 -4.778976e-05
0.07266765 0.0061671264 5.810842e-09 0.05294729 0.00081880053 1.9371871e-08 0.03703065 0.00013775317
1.9947448e-08 -1.5987256e-09 -4.215916e-07 4.247095e-10 -6.0746794e-07 0.07542831 4.9483482e-08 0.024163425
0.06814673 -1.6670192e-05 -0.0001271279 0.033618264 -2.662802e-07 9.17905e-06 0.030670196 0.05570194
00000000: 7b59 a43b 81b1 0631 0787 d6b5 777c e93a
00000010: b281 b83c 93a0 2033 7f57 7fb5 dd71 48b8
00000020: c7d2 943d 9b15 ca3b b5a8 c731 42df 583d
00000030: c6a4 563a 3267 a632 73ad 173d d671 1039
00000040: e758 ab32 28ba dbb0 1c57 e2b4 8c7c e92f
00000050: e110 23b5 287a 9a3d aa87 5433 60f2 c53c
00000060: 8390 8b3d f7d6 8bb7 a34d 05b9 4eb3 093d
00000070: 46f5 8eb4 b8ff 1937 1040 fb3c b827 643d

model.8.weight f4 [8, 32, 3, 3]
1.4191647e-05 1.6172347e-05 1.878632e-05 1.5299944e-05 1.627634e-05 2.2436505e-05 1.940755e-05 1.6594768e-05
-2.5360741e-05 7.1196377e-10 -7.6996337e-10 -3.7446376e-11 -5.2433025e-10 -8.6863894e-10 -3.046445e-11 -7.2362526e-11
4.7836724e-11 1.3704686e-10 -1.0577942e-08 -2.3152187e-09 -8.9372785e-09 1.6002881e-09 -2.4089817e-09 8.284567e-09
-8.859744e-09 -9.793435e-10 8.4034e-09 6.4632777e-06 6.668905e-06 6.498154e-06 6.5317076e-06 6.6865014e-06
-2.5672874e-05 -2.5175803e-05 2.495428e-05 -2.4071498e-05 9.0226764e-05 9.290888e-05 7.298228e-05 9.1511414e-05
9.298738e-05 7.055512e-05 6.9423804e-05 7.175131e-05 3.2723277e-05 -2.8097868e-10 2.262063e-10 -1.2437604e-10
-1.0456896e-09 -7.949059e-10 1.6835067e-10 4.6023685e-10 -4.2095863e-10 -2.0172057e-10 -7.2144517e-09 -7.162456e-09
1.7488581e-09 -9.802472e-10 -8.479176e-11 2.3369489e-09 -5.1160507e-09 -3.4722705e-09 8.490451e-09 -4.887124e-07
3.6702804e-07 5.328872e-07 -5.6860557e-07 -5.4347214e-07 -4.295352e-07 1.8833476e-06 -3.001214e-07 -4.5385133e-07
0.00040199998 0.00041342256 0.0003157733 0.00040408806 0.00040972026 0.00030565352 0.0002599979 0.00026129954
0.00027370141 2.0116608e-05 2.434168e-05 1.6846208e-05 1.9868336e-05 2.3965667e-05 1.7712475e-05 1.8594998e-05
2.0780337e-05 5.42555e-06 -2.9069802e-10 -4.3390327e-10 1.5365641e-10 5.75134e-10 -3.6292386e-10 -3.165254e-10
2.200296e-10 -3.6672895e-10 -1.2950852e-10 0.00024179398 0.0002536647 0.00020233745 0.00024735637 0.00025432557
0.00019479447 0.000179285 0.00018230983 3.2025688e-05 2.3110442e-06 2.4755068e-06 -6.1961014e-06 2.3358134e-06
2.5173877e-06 -9.502997e-06 2.9809896e-06 2.6130072e-06 -1.5012387e-05 -4.8794435e-10 -6.5068906e-10 6.808517e-11
-3.0373304e-10 -4.251723e-10 -4.3031848e-10 -1.2726378e-11 3.693722e-10 -2.418946e-11 0.0001607398 0.00016514023
0.00013428339 0.00016300341 0.00016439793 0.0001294069 0.000119183846 0.00012261976 7.383269e-05 6.34754e-07
6.4733007e-07 -2.6618e-07 6.5695036e-07 6.6220395e-07 1.2937555e-07 -1.244332e-06 4.0768105e-06 2.197334e-06
-1.4312004e-10 -1.5489745e-09 1.9165165e-09 4.2057535e-10 -6.5063355e-10 2.027576e-09 2.2902278e-09 -8.258412e-10
7.467794e-10 -6.798737e-10 2.6675823e-10 1.41075e-09 -3.278263e-11 -2.3250406e-10 3.9744166e-10 -2.7780964e-09
3.005076e-10 -1.8444702e-09 -2.2143118e-09 -4.3766715e-09 -4.957379e-09 -2.4491718e-09 -2.2602487e-09 -3.0549885e-09
5.4082445e-09 5.773515e-09 9.128073e-09 1.7110711e-10 2.5132708e-11 1.9230606e-10 -4.357824e-11 7.627379e-11
-1.5562589e-10 -1.5819872e-10 1.1687913e-11 -6.9733795e-11 -1.004588e-08 1.0665468e-08 1.15286936e-08 -6.021239e-09
-1.1900205e-08 1.0041582e-08 9.008004e-09 -8.214488e-09 3.324938e-09 0.0003914407 0.0004054324 0.00032711957
0.000395957 0.00040641148 0.0003165813 0.00027693133 0.00027942416 0.00028321243 -3.209713e-10 -7.4990913e-10
-1.757363e-09 -7.339749e-11 -6.440509e-10 -1.1074619e-09 -2.0868112e-09 1.416573e-10 -3.2866758e-09 9.086523e-05
9.39102e-05 7.0921786e-05 9.175487e-05 9.44894e-05 6.972962e-05 7.851233e-05 8.006838e-05 -5.348174e-06
0.00035694358 0.00037442942 0.0002818916 0.00036462425 0.00037519092 0.00027275426 0.00023823344 0.00024063718
0.00025887063 -1.1193481e-08 1.4024188e-08 1.863834e-07 -3.836507e-08 -1.8432825e-08 1.598896e-07 -4.846342e-08
-1.1962977e-07 -1.7859298e-07 5.374704e-07 -5.211491e-07 -6.1775734e-07 -4.4380485e-07 9.901123e-07 -1.5553728e-07
8.0419807e-07 8.0671174e-07 -1.1746357e-07 0.00013691261 0.00014260279 0.00011637861 0.0001397299 0.00014227339
0.00011248851 0.00011003042 0.00011260812 -5.0521012e-05 -4.219071e-09 4.035716e-09 5.7538074e-10 -9.6321155e-09
00000000: a918 6e37 daa9 8737 5197 9d37 6158 8037
00000010: 2d89 8837 0736 bc37 65cd a237 fe34 8b37
00000020: c7bd d4b7 ffb3 4330 5ba5 53b0 dfb0 24ae
00000030: 7620 10b0 08c5 6eb0 ecfb 05ae 7b20 9fae
00000040: 5d63 522e 43af 162f 48ba 35b2 c219 1fb1
00000050: 918a 19b2 22f1 db30 418b 25b1 e953 0e32
00000060: 9135 18b2 9699 86b0 8b5e 1032 22df d836
00000070: 75c5 df36 b80a da36 f12a db36 9c5c e036
00000080: 145c d7b7 a030 d3b7 e954 d137 26ed c9b7
00000090: 2038 bd38 13d8 c238 100e 9938 d1e9 bf38
000000a0: 3802 c338 fef6 9338 9f97 9138 3179 9638
000000b0: 5a40 0938 3c78 9aaf 6ab7 782f bec0 08af
000000c0: efb7 8fb0 8880 5ab0 801a 392f 9404 fd2f
000000d0: a96c e7af 4bcb 5daf fde2 f7b1 a119 f6b1
000000e0: 795c f030 62b9 86b0 8475 baae 0a98 2031
000000f0: 42c9 afb1 d49c 6eb1 66dd 1132 0f30 03b5
00000100: f30b c534 bb0b 0f35 47a2 18b5 1fe3 11b5
00000110: de9a e6b4 55c7 fc35 5f20 a1b4 daa8 f3b4
00000120: 86c3 d239 a3c0 d839 608e a539 c8db d339
00000130: b9cf d639 1f40 a039 5450 8839 08ff 8839
00000140: 957f 8f39 16c0 a837 5c31 cc37 f550 8d37
00000150: edaa a637 e109 c937 4095 9437 74fc 9b37
00000160: 6f51 ae37 1f0d b636 1cd0 9faf 758a eeaf
00000170: 6ff2 282f 7517 1e30 fe84 c7af fd02 aeaf
00000180: d4ec 712f 839c c9af 6865 0eaf 148a 7d39
00000190: 4dfe 8439 8c2a 5439 9caf 8139 0057 8539
000001a0: be41 4c39 73fe 3b39 6c2a 3f39 5253 0638
000001b0: 7017 1b36 e220 2636 1be8 cfb6 f8c0 1c36
000001c0: 64f0 2836 106f 1fb7 030d 4836 1f5b 2f36
000001d0: b6dd 7bb7 0820 06b0 2cdc 32b0 8bb8 952e
000001e0: a0fa a6af aebd e9af f191 ecaf 83e2 5fad
000001f0: 8410 cb2f d2c5 d4ad 438c 2839 7e29 2d39
00000200: 6cce 0c39 e5eb 2a39 3c62 2c39 66b1 0739
00000210: 57f2 f938 7e93 0039 a0d6 9a38 f663 2a35
00000220: 2fc4 2d35 80e7 8eb4 4959 3035 4fc2 3135
00000230: 7bea 0a34 ec02 a7b5 89cb 8836 e975 1336
00000240: b65c 1daf b2e3 d4b0 b7b3 0331 b836 e72f
00000250: 44d8 32b0 7f55 0b31 1d62 1d31 6801 63b0
00000260: ee45 4d30 dce1 3ab0 e2a6 922f 5ae4 c130
00000270: f62d 10ae 13a4 7faf f17e da2f cae8 3eb1
00000280: af34 a52f 8780 fdb0 962a 18b1 9c61 96b1
00000290: 9155 aab1 494e 28b1 b752 1bb1 edef 51b1
000002a0: 6cd3 b931 6060 c631 b1d1 1c32 5f22 3c2f
000002b0: d411 dd2d 5871 532f bda8 3fae 54ba a72e
000002c0: cb1c 2baf fbf0 2daf ae9d 4d2d a358 99ae
000002d0: 3f96 2cb2 393b 3732 bb0f 4632 61e3 ceb1
000002e0: a871 4cb2 5883 2c32 9fc1 1a32 b31f 0db2
000002f0: ee7c 6431 483a cd39 3790 d439 3f81 ab39
00000300: 7398 cf39 a013 d539 d3fa a539 1831 9139
00000310: ad7f 9239 217c 9439 b274 b0af 2a22 4eb0
00000320: b787 f1b0 1d67 a1ae 0e09 31b0 5a35 98b0
00000330: 9267 0fb1 fcc0 1b2f d0db 61b1 e68e be38
00000340: a8f1 c438 d8bb 9438 856c c038 9c28 c638
00000350: ce3b 9238 fca6 a438 62ea a738 7774 b3b6
00000360: 2824 bb39 114f c439 daca 9339 0a2b bf39
00000370: 46b5 c439 7500 8f39 4dce 7939 8d53 7c39
00000380: 07b9 8739 734d 40b2 08ef 7032 ae20 4834
00000390: d7c6 24b3 3656 9eb2 1eae 2b34 1826 50b3
000003a0: 9573 00b4 44c3 3fb4 af46 1035 18e5 0bb5
000003b0: f6d3 25b5 1344 eeb4 00e4 8435 c301 27b4
000003c0: 12e0 5735 cf8c 5835 4840 fcb3 3390 0f39
000003d0: a587 1539 4a10 f438 7684 1239 392f 1539
000003e0: cfe7 eb38 22c0 e638 0628 ec38 86e6 53b8
000003f0: 57f7 90b1 89aa 8a31 d228 1e30 7e7a 25b2

model.8.bias f4 [8]
0.00031911247 0.00039461767 0.05228223 6.707977e-08 0.051162507 0.048562746 7.9237e-09 0.010192428
00000000: 8d4e a739 b0e4 ce39 e425 563d 7e0d 9033
00000010: c78f 513d bbe9 463d cd20 0832 24fe 263c

model.12.weight f4 [16, 48]
0.00021100383 0.0002404655 0.00019743586 0.00023803604 0.00025689244 0.00028865758 -3.1433232e-05 0.0023065167
0.0008529831 0.00021461755 0.00015322526 0.0009929108 0.03162158 0.033253774 0.034686584 0.03306236
0.0332241 0.032970212 3.8580538e-07 2.1478783e-07 -1.739415e-05 3.942464e-07 3.3713906e-07 5.384984e-07
0.032912817 0.034570944 0.036429208 0.036935925 0.03650854 0.037045576 0.032346163 0.023419952
0.035626892 0.03357253 0.04241208 0.030926079 7.741843e-09 2.1714037e-08 1.2776441e-08 -1.4191545e-08
-9.265691e-09 2.4891687e-08 -0.016864879 0.024437409 0.06314208 0.04775257 -0.045246825 -0.048949353
-0.00032269215 -0.00033910273 -0.00026010958 -0.00025256505 -0.00026125755 -0.00028130048 -0.00025871393 -0.00022496439
-0.00024258591 -0.00024219262 -0.00026076083 -0.0002640715 -0.033121098 -0.033756923 -0.035094813 -0.033502188
-0.034648445 -0.036473535 3.077405e-07 2.8480224e-07 -8.7723026e-07 -4.516713e-07 6.04639e-07 -2.8125487e-07
-0.03415192 -0.03468053 -0.03581081 -0.033902455 -0.035042074 -0.03756523 -0.029398274 -0.029887807
-0.030927265 -0.029083857 -0.030555127 -0.032367613 -2.8912735e-08 1.8254658e-08 5.08089e-09 1.570598e-08
7.9920354e-10 -2.9554874e-09 -0.0063684476 -0.00659933 -0.006767713 -0.006542751 -0.0067931516 -0.0070979986
8.941747e-05 3.247308e-05 0.00019739378 0.00021359648 0.00015735606 0.00013090353 0.00017062048 0.00016759061
0.0002935261 0.00020514683 0.00023024571 0.00019049429 0.035365906 0.040228166 0.043942578 0.0432026
0.041793 0.03995421 2.566766e-07 2.1468486e-07 8.416644e-07 1.6902221e-07 2.2916353e-07 3.4879133e-07
0.046058036 0.036933146 0.040348254 0.043078847 0.046594795 0.03610786 0.04203255 0.0434452
0.021996554 0.03800932 0.05087636 0.053691685 -8.103846e-10 1.20371615e-08 1.0799083e-08 9.624392e-09
9.744091e-09 3.6516297e-09 0.012247708 0.014069158 0.008513959 0.0063034846 0.0074055106 0.007791955
0.00036723216 0.000407121 0.00026030448 0.00039012707 0.00042644233 0.00024416816 0.00048805997 0.0004832941
0.00045397962 0.00048074414 0.00043422714 0.00054104824 0.032456513 0.032410387 0.034107976 0.036312927
0.035056178 0.04058363 5.465398e-07 4.809756e-07 1.3571339e-06 9.5048676e-07 -6.8882525e-07 7.7605165e-07
0.03431812 0.03378825 0.037027363 0.036073446 0.03748168 0.038163546 0.028679531 0.03186243
0.030416861 0.031730767 0.032052673 0.032857887 -6.4569887e-09 8.768055e-09 -3.8889145e-09 1.4954798e-08
-7.472373e-09 -3.6866483e-09 0.008263281 0.011577626 0.011435752 0.011415855 0.012729889 0.0128735965
0.0002233393 0.00028449015 0.00019193706 0.00015163352 0.00024023332 0.00019701556 0.00025966534 0.00026074683
0.00028090278 0.00028513384 0.00027131778 0.00027483833 0.03598969 0.037925288 0.03860098 0.040910743
0.04003463 0.0382277 1.0534855e-07 2.1815029e-07 7.152128e-07 1.8849961e-07 4.127265e-07 5.569357e-07
0.037507284 0.039128017 0.040012356 0.042148616 0.041173078 0.039714698 0.03135658 0.03308652
0.03392389 0.035410833 0.034920167 0.033546362 -4.0879646e-09 1.1959833e-08 -1.1857323e-10 2.1430388e-08
1.9047828e-08 1.1448377e-08 0.006571214 0.0067400862 0.006842323 0.00734476 0.007331709 0.006899368
6.8390975e-05 5.8268917e-05 -3.2788914e-05 5.4341825e-05 -0.00023127961 -0.0002391782 -0.00011985459 5.265832e-05
-0.00025206435 -0.0001654484 0.000499124 0.00057139265 -0.03433759 -0.036132425 -0.038065087 -0.03800217
00000000: e940 5d39 7725 7c39 c906 4f39 5099 7939
00000010: 85af 8639 f756 9739 2dd7 03b8 ee28 173b
00000020: ba9a 5f3a f60a 6139 18ab 2039 8f24 823a
00000030: a185 013d 1c35 083d 8513 0e3d 666c 073d
00000040: fe15 083d c60b 073d b020 cf34 6ea0 6634
00000050: a7e9 91b7 d0a8 d334 0a00 b534 548d 1035
00000060: 97cf 063d 439a 0d3d cb36 153d 204a 173d
00000070: fb89 153d 1abd 173d 697d 043d 33db bf3c
00000080: 81ed 113d 5983 093d 4ab8 2d3d b058 fd3c
00000090: fc00 0532 ac85 ba32 627f 5b32 13cf 73b2
000000a0: f12e 1fb2 66d1 d532 3728 8abc f630 c83c
000000b0: a350 813d 3398 433d bc54 39bd 1e7f 48bd
000000c0: 022f a9b9 99c9 b1b9 515f 88b9 b56a 84b9
000000d0: 65f9 88b9 837b 93b9 ffa3 87b9 6be4 6bb9
000000e0: a95e 7eb9 16f5 7db9 bab6 88b9 1473 8ab9
000000f0: fda9 07bd b344 0abd 94bf 0fbd 9739 09bd
00000100: 87eb 0dbd 4665 15bd 8837 a534 ece6 9834
00000110: ce7a 6bb5 3b7d f2b4 7a4e 2235 60ff 96b4
00000120: e2e2 0bbd 2c0d 0ebd 5bae 12bd 4ddd 0abd
00000130: 4788 0fbd 00de 19bd a6d4 f0bc 46d7 f4bc
00000140: 2d5b fdbc 4541 eebc bf4e fabc e793 04bd
00000150: c75b f8b2 6bce 9c32 fb93 ae31 d1e9 8632
00000160: f3ae 5b30 7c19 4bb1 69ae d0bb 313f d8bb
00000170: b1c3 ddbb 9364 d6bb 1699 debb 5496 e8bb
00000180: a385 bb38 b433 0838 7dfb 4e39 def8 5f39
00000190: f2ff 2439 2643 0939 96e8 3239 43bb 2f39
000001a0: 68e4 9939 af1c 5739 1d6e 7139 6cbf 4739
000001b0: d7db 103d 4ac6 243d 22fd 333d 36f5 303d
000001c0: 232f 2b3d 07a7 233d 5dcd 8934 2084 6634
000001d0: bdee 6135 797c 3534 fe0f 7634 8441 bb34
000001e0: 5aa7 3c3d 3647 173d 3644 253d 7273 303d
000001f0: 2fda 3e3d d6e5 133d 532a 2c3d 98f3 313d
00000200: 1e32 b43c a9af 1b3d bb63 503d d0eb 5b3d
00000210: bfc1 5eb0 ffcb 4e32 df86 3932 8658 2532
00000220: f766 2732 26f0 7a31 9caa 483c 5382 663c
00000230: 227e 0b3c 768d ce3b eda9 f23b a853 ff3b
00000240: 1189 c039 db72 d539 7a79 8839 f889 cc39
00000250: 1f94 df39 b203 8039 4de2 ff39 a362 fd39
00000260: 1d04 ee39 630c fc39 fba8 e339 22d5 0d3a
00000270: 1ff1 043d c1c0 043d ceb4 0b3d ddbc 143d
00000280: 1197 0f3d 053b 263d eeb5 1235 641c 0135
00000290: c426 b635 f424 7f35 b6e7 38b5 dd51 5035
000002a0: 2891 0c3d 8c65 0a3d 01aa 173d c0c1 133d
000002b0: 6486 193d 6151 1c3d 56f1 ea3c 2e82 023d
000002c0: c82c f93c 1ff8 013d aa49 033d fe95 063d
000002d0: 46dc ddb1 50a2 1632 419f 85b1 f375 8032
000002e0: d85f 00b2 3458 7db1 b662 073c 15b0 3d3c
000002f0: 055d 3b3c 9109 3b3c 0691 503c c7eb 523c
00000300: 3030 6a39 9f27 9539 b642 4939 d0ff 1e39
00000310: 24e7 7b39 f695 4e39 b123 8839 d9b4 8839
00000320: 2246 9339 047e 9539 a83f 8e39 2d18 9039
00000330: ed69 133d 8c57 1b3d 101c 1e3d 0692 273d
00000340: 5afb 233d a694 1c3d fa3b e233 b23c 6a34
00000350: 0dfd 3f35 6166 4a34 b394 dd34 5480 1535
00000360: 3da1 193d b344 203d ffe3 233d 07a4 2c3d
00000370: 1aa5 283d e1ab 223d c26f 003d bb85 073d
00000380: c7f3 0a3d f30a 113d 7308 0f3d e967 093d
00000390: 1e76 8cb1 e777 4d32 665f 02af ec15 b832
000003a0: 9e9e a332 7fae 4432 5753 d73b f1db dc3b
000003b0: 9135 e03b 50ac f03b d53e f03b 1814 e23b
000003c0: 206d 8f38 c665 7438 d486 09b8 17ed 6338
000003d0: a683 72b9 e9cb 7ab9 715a fbb8 71dd 5c38
000003e0: 8127 84b9 377c 2db9 a5d7 023a 83c9 153a
000003f0: 93a5 0cbd 98ff 13bd 23ea 1bbd 2aa8 1bbd

model.12.bias f4 [16]
0.01375463 -0.014039443 0.015756836 0.015018295 0.01686221 -0.014136873 0.012781755 0.019747814
0.015483671 0.015160901 -0.011340443 0.016459834 0.01849537 -0.016973553 -0.019115617 0.020140221
00000000: 1a5b 613c b105 66bc 7b14 813c 4b0f 763c
00000010: 9e22 8a3c 589e 67bc 916a 513c 2bc6 a13c
00000020: 39af 7d3c 6d65 783c 44cd 39bc c6d6 863c
00000030: 9a83 973c 1f0c 8bbc 5b98 9cbc 1bfd a43c

model.15.weight f4 [4, 16]
-0.16585071 0.19331679 -0.18793553 -0.17447993 -0.19486734 0.18655933 -0.19220516 -0.17568181
-0.18118128 -0.19595528 0.14357515 -0.17255023 -0.1675317 0.19599985 0.15122722 -0.15996577
-0.27282643 0.26108745 -0.26961407 -0.26175028 -0.28846002 0.24162506 -0.27184194 -0.2884738
-0.26383936 -0.26340526 0.27277222 -0.26635253 -0.212819 0.2251275 0.24787991 -0.2736621
-0.18125303 0.08581521 -0.07402739 -0.13937913 -0.11002223 0.062119722 -0.13662316 -0.12879197
-0.13365309 -0.08840324 0.103486985 -0.102325365 -0.1252703 0.09183299 0.13658215 -0.12197898
0.03714851 0.016977305 0.16290003 0.045931384 0.08996725 -0.039966714 -0.002340672 0.23469576
-0.011001073 0.06008964 0.004673255 0.098338604 0.12870437 -0.12001267 -0.048163436 0.04847612
00000000: c5d4 29be d6f4 453e 2c72 40be deaa 32be
00000010: 4e8b 47be 6909 3f3e 6ed1 44be efe5 33be
00000020: 9687 39be 80a8 48be 5d05 133e 02b1 30be
00000030: 6e8d 2bbe 2fb4 483e 4fdb 1a3e 11ce 23be
00000040: e8af 8bbe 41ad 853e db0a 8abe 2204 86be
00000050: 08b1 93be 8f6c 773e de2e 8bbe d7b2 93be
00000060: f415 87be 0edd 86be cda8 8b3e 5c5f 88be
00000070: 39ed 59be d387 663e 3bd4 7d3e 701d 8cbe
00000080: 659a 39be e3bf af3d ac9b 97bd 67b9 0ebe
00000090: 5653 e1bd 4071 7e3d f1e6 0bbe 0be2 03be
000000a0: 5bdc 08be c20c b5bd fcf0 d33d f68f d1bd
000000b0: dc46 00be ef12 bc3d 31dc 0b3e 1ed0 f9bd
000000c0: 0929 183d fd13 8b3c 44cf 263e 8c22 3c3d
000000d0: c040 b83d 23b4 23bd f665 19bb 1654 703e
000000e0: d83d 34bc 8e20 763d 1b22 993b c065 c93d
000000f0: 14cb 033e 34c9 f5bd 0647 45bd e58e 463d

model.15.bias f4 [4]
-0.2008595 -0.2822044 -0.118072554 0.14164367
00000000: 1dae 4dbe 187d 90be 06d0 f1bd 0a0b 113e

exp_avg f4 [1, 3, 1, 1]
5.5010325e-05 5.629045e-05 5.7890862e-05
00000000: e3ba 6638 6919 6c38 d7cf 7238

exp_avg_sq f4 [1, 3, 1, 1]
7.012607e-08 7.224592e-08 7.345643e-08
00000000: 3798 9633 9d25 9b33 19bf 9d33

exp_avg f4 [128, 1, 3, 3]
2.1661002e-07 2.3040324e-07 2.3676999e-07 2.4328335e-07 2.487948e-07 2.233431e-07 2.3709376e-07 2.4044493e-07
2.3556609e-07 2.4326178e-05 2.4544393e-05 2.375654e-05 2.444082e-05 2.5124518e-05 2.4236853e-05 2.3825378e-05
2.4491412e-05 2.4108562e-05 1.0895199e-12 1.3996918e-12 -1.5450164e-12 1.1255188e-12 -1.4935158e-12 1.7066474e-13
2.3718677e-12 4.2985851e-13 3.9382625e-13 -2.6684052e-10 -6.0412303e-10 -3.1388844e-10 -8.1268534e-11 -3.0558764e-10
-3.217939e-10 -1.3615531e-10 -1.1953122e-10 -1.4461073e-10 -8.458909e-13 -3.623964e-13 -4.4063165e-12 -1.6708612e-11
-1.0699182e-13 3.4144478e-12 1.0994105e-12 3.697251e-12 1.1829996e-13 1.4226228e-12 1.0378448e-12 -1.7007705e-13
-7.851036e-13 -2.9807745e-13 -2.4558135e-12 1.7625306e-12 -8.027342e-13 -1.570767e-12 1.6399748e-10 -1.0944216e-10
-6.2633225e-11 -1.8905964e-10 1.9707971e-10 -2.5141186e-10 8.58907e-11 -2.5697713e-10 1.0820719e-10 -1.13128874e-10
-1.9616936e-10 -8.101239e-11 -8.3395305e-11 -8.8957695e-11 -2.2194778e-10 -8.235497e-11 -1.463335e-10 -8.445378e-11
-5.3196567e-09 1.0111222e-09 3.3557206e-09 -6.971456e-09 -5.7592633e-09 4.1175583e-09 1.7852997e-09 -5.4963265e-09
1.6320374e-09 2.5091559e-11 -2.308559e-11 1.4494688e-12 -1.1039668e-11 -1.3173127e-11 -5.941354e-12 -4.4553506e-12
-1.0082857e-11 -2.1497505e-11 -1.9608214e-13 1.0959254e-12 9.690959e-13 9.231976e-13 1.0470609e-12 8.6236823e-13
2.9228047e-13 3.4151826e-13 -3.9321964e-13 -1.1902722e-11 -2.8703111e-11 5.6738308e-12 2.8130495e-12 -5.7372093e-12
-3.9191785e-11 -4.546388e-12 2.2508733e-12 1.568834e-11 2.3344991e-12 7.025191e-13 -1.8429026e-12 -1.29436e-12
-1.1417505e-12 2.2820594e-13 -5.287269e-14 -2.4124786e-13 4.0922513e-12 7.134484e-13 8.7005186e-13 1.4686976e-12
4.054883e-14 1.2517306e-12 3.3189385e-13 1.4163795e-12 8.093578e-13 9.348996e-13 -1.148587e-10 -1.3011936e-10
8.362355e-11 -1.4334138e-10 -2.2658851e-10 9.214342e-11 -1.2154891e-10 -1.4631786e-10 -1.3319632e-10 -9.975734e-12
-6.2383943e-12 -5.3391796e-12 5.5644152e-12 -1.3678015e-11 2.9046637e-12 5.228207e-13 -1.9192174e-12 -7.0389675e-12
-2.4392387e-12 3.595897e-12 -1.9397541e-12 -6.6745593e-12 -7.28582e-13 -4.239779e-12 1.1304532e-12 -3.7615523e-12
2.1509185e-12 7.0068826e-11 -3.268132e-10 -5.033464e-10 2.423204e-10 9.4964085e-11 -4.4142615e-10 6.560734e-11
-1.0021638e-10 6.833931e-11 -2.4273922e-10 -2.2703098e-10 -5.9836254e-11 3.8145304e-10 -2.8499744e-10 -8.6698496e-11
2.584997e-10 3.6213196e-11 -1.9252343e-10 -6.120663e-11 -3.3639914e-11 2.176085e-11 -3.2810407e-11 -2.5264252e-11
-1.4569672e-11 -2.6064265e-11 -2.8250418e-11 -5.7932e-12 -1.3987697e-07 -1.4258896e-07 -9.627235e-08 -1.2387102e-07
-1.2634322e-07 -1.31716e-07 5.5783236e-08 -1.18382516e-07 -1.3800619e-07 8.41799e-11 -1.1539282e-10 4.286383e-12
1.11217466e-10 2.8941781e-11 -7.756067e-11 1.092213e-10 -1.8300489e-10 -3.5396814e-12 3.6428453e-08 4.223898e-08
4.1536833e-08 4.13813e-08 3.891062e-08 4.175032e-08 4.2054182e-08 4.144452e-08 3.6970754e-08 -1.542796e-09
-4.9829114e-09 -6.958263e-09 1.9418932e-10 -2.8015608e-09 3.968474e-10 3.079489e-10 -5.796394e-09 4.9706256e-10
-1.2557221e-11 7.773089e-12 9.741487e-12 3.3040198e-12 -1.0353116e-11 -3.5763987e-12 4.2724596e-12 -8.694636e-12
1.2809386e-11 -1.7636047e-11 1.3468815e-11 -1.4129939e-11 -1.5803117e-11 -1.8361115e-11 -1.560137e-11 1.0815279e-11
-1.6344766e-11 -1.4282754e-11 2.162768e-11 -1.7305581e-13 -5.93758e-12 7.4806645e-12 -1.8937234e-11 -5.7012476e-12
-1.5317437e-11 5.2683092e-12 -5.980722e-12 5.426095e-13 7.240313e-13 3.3500505e-13 -4.9239436e-12 -2.7995076e-12
-4.790928e-13 6.5755105e-12 1.8578967e-13 -2.0465908e-12 -1.7321984e-09 1.982597e-09 -6.2554195e-10 -2.9317707e-10
00000000: 4f95 6834 c364 7734 d73a 7e34 9c9c 8234
00000010: 1992 8534 15d0 6f34 d693 7e34 8016 8134
00000020: eaef 7c34 1210 cc37 afe4 cd37 c848 c737
00000030: 4306 cd37 7ec2 d237 3f50 cb37 9cdc c737
00000040: e872 cd37 be3c ca37 1756 992b 36fd c42b
00000050: 1571 d9ab 1767 9e2b 9431 d2ab c326 402a
00000060: c5e7 262c 24fd f12a 58b4 dd2a 77b2 92af
00000070: 610f 26b0 df8f acaf 1eb6 b2ae a3ff a7af
00000080: 77e8 b0af 50b4 15af 0c6d 03af 4d00 1faf
00000090: dd18 6eab d302 ccaa 9208 9bac 73f8 92ad
000000a0: 96ec f0a9 3945 702c 70ba 9a2b e015 822c
000000b0: a431 052a 6337 c82b 4d10 922b 5f7d 3faa
000000c0: adfc 5cab 7dcd a7aa 01d0 2cac db0d f82b
000000d0: 18f3 61ab d810 ddab 3051 342f 75aa f0ae
000000e0: 5fbb 89ae 8fdf 4faf 02b1 582f 1337 8aaf
000000f0: 2ae0 bc2e 5146 8daf 3cf3 ed2e e5c5 f8ae
00000100: c4b0 57af ec25 b2ae 6263 b7ae bb9e c3ae
00000110: bf08 74af ba19 b5ae 38e5 20af 40b7 b9ae
00000120: 32c8 b6b1 b3f7 8a30 769a 6631 9389 efb1
00000130: 04e3 c5b1 6d7a 8d31 a65e f530 33da bcb1
00000140: 364e e030 2bb5 dc2d 2110 cbad 9efe cb2b
00000150: 3f36 42ad 7dbe 67ad f60a d1ac 3bc2 9cac
00000160: 2761 31ad 1418 bdad d4c4 5caa e03c 9a2b
00000170: 5c63 882b b3ed 812b 585c 932b 2ebc 722b
00000180: 0e8a a42a f841 c02a ec5c ddaa 1865 51ad
00000190: a979 fcad 53a1 c72c 65f3 452c 30dc c9ac
000001a0: 075e 2cae 39f6 9fac 2164 1e2c 00ff 892d
000001b0: 9946 242c d6bd 452b c8ae 01ac 3c2a b6ab
000001c0: e6af a0ab f177 802a 101e 6ea9 7bcf 87aa
000001d0: b9fb 8f2c 60d1 482b d8e5 742b 68b3 ce2b
000001e0: 9e9d 3629 592a b02b f2d6 ba2a 7356 c72b
000001f0: 60d0 632b 4f93 832b b393 fcae 5811 0faf
00000200: e0e3 b72e 039b 1daf ff22 79af 22a0 ca2e
00000210: faa4 05af d1e0 20af 6e73 12af b67e 2fad
00000220: 767e dbac 0edb bbac ccc7 c32c 4ea0 70ad
00000230: c565 4c2c 3429 132b 8c0d 07ac 62a9 f7ac
00000240: 6ba5 2bac ec09 7d2c 817f 08ac 16d7 eaac
00000250: de13 4dab 892c 95ac de18 9f2b 0d59 84ac
00000260: 815b 172c 3e15 9a2e deaa b3af db5b 0ab0
00000270: 9137 852f 07d4 d02e 35ad f2af a645 902e
00000280: ce60 dcae 9d47 962e 8272 85af 8a9f 79af
00000290: d194 83ae beb4 d12f d3ad 9caf eaa6 beae
000002a0: 991c 8e2f 6f44 1f2e 87ae 53af 4598 86ae
000002b0: 2df3 13ae 1469 bf2d 3c4d 10ae 0a3a dead
000002c0: fc27 80ad 8243 e5ad 497e f8ad 82d4 cbac
000002d0: 1731 16b4 8e1a 19b4 49be ceb3 6801 05b4
000002e0: f6a8 07b4 d26d 0db4 5196 6f33 7a39 feb3
000002f0: da2e 14b4 121d b92e 62c0 fdae 4ed0 962c
00000300: de91 f42e 1993 fe2d c78e aaae 202e f02e
00000310: 4c37 49af 3b15 79ac 8275 1c33 406a 3533
00000320: 3b66 3233 38bb 3133 ae1e 2733 f650 3333
00000330: 109f 3433 bb00 3233 c6c9 1e33 4f0a d4b0
00000340: 2736 abb1 8715 efb1 6f83 552f 9485 40b1
00000350: 4e2b da2f f44b a92f 9f29 c7b1 aba1 0830
00000360: b2e8 5cad e1be 082d c25f 2b2d ee7f 682c
00000370: 4a22 36ad acaa 7bac e552 962c 29f5 18ad
00000380: 5958 612d d920 9bad 26f2 6c2d 9793 78ad
00000390: 7501 8bad 8e81 a1ad 293b 89ad b043 3e2d
000003a0: 24c5 8fad ce43 7bad 353d be2d f1d7 42aa
000003b0: f7e8 d0ac eb99 032d dc92 a6ad 4698 c8ac
000003c0: cdbb 86ad b65c b92c 8e6d d2ac 23bb 182b
000003d0: f4cb 4b2b 5197 bc2a f13e adac 72ff 44ac
000003e0: 46da 06ab ef5a e72c 3a2e 512a 1a04 10ac
000003f0: 5012 eeb0 373e 0831 9af2 2bb0 012d a1af

exp_avg_sq f4 [128, 1, 3, 3]
1.1522489e-09 6.9913103e-10 4.861712e-10 4.9852084e-10 5.075047e-10 9.119901e-10 5.2035815e-10 5.571545e-10
6.43932e-10 7.567903e-09 7.984883e-09 7.6756805e-09 8.553501e-09 8.806332e-09 8.618377e-09 7.668085e-09
7.834546e-09 7.6166895e-09 5.0497825e-11 1.1013861e-09 3.1770153e-10 2.6420179e-11 2.97705e-10 1.3912266e-10
6.908121e-10 3.2888657e-11 1.5566126e-10 5.271716e-10 8.3100504e-10 6.078978e-10 3.888177e-10 2.5070251e-10
2.257055e-10 3.1456232e-10 4.324535e-10 4.465729e-10 6.535227e-10 1.8112582e-10 1.497264e-10 1.1885819e-09
6.8353584e-10 3.9006087e-10 4.0106418e-10 3.4028935e-10 1.9187296e-10 2.9711664e-11 2.1304096e-10 5.674634e-10
8.41443e-11 7.968361e-11 6.869342e-10 4.115948e-11 3.2161535e-10 9.348637e-11 4.3143662e-11 7.630227e-10
1.5426651e-11 2.375865e-12 3.4123424e-10 9.536448e-10 5.0179527e-11 2.0974115e-11 4.3263673e-10 5.5687566e-10
8.134478e-10 3.010134e-10 2.743272e-10 2.4256097e-10 8.90571e-10 2.2544147e-10 1.448303e-10 1.1766661e-10
1.2953423e-10 4.3518425e-10 2.1227708e-10 6.615351e-10 1.2526989e-10 2.2352938e-10 6.751795e-11 6.1051153e-10
1.9089062e-10 4.8700826e-12 1.4722308e-10 1.2743123e-11 3.039222e-11 6.961518e-10 4.2945345e-10 3.2473013e-10
2.9526416e-11 8.389842e-11 1.3486859e-11 2.1983332e-11 1.962347e-10 7.718207e-10 8.218585e-11 2.954147e-11
1.2342202e-11 1.0548898e-11 4.502231e-10 6.063377e-11 2.0007945e-11 4.001864e-11 4.386989e-10 7.3586366e-11
9.9301796e-11 6.546137e-11 5.2891935e-10 1.9100894e-10 6.5903333e-10 1.6864332e-10 7.7368667e-10 3.98317e-10
9.283906e-10 1.660386e-10 1.9865914e-10 7.7247986e-10 1.1958468e-09 8.8735863e-10 5.325318e-10 9.288104e-10
7.9097576e-11 5.1308457e-11 1.275443e-10 7.548337e-10 1.191027e-10 4.0012483e-11 1.5235505e-10 4.3750545e-10
7.5659236e-11 8.544459e-10 2.0926254e-11 3.6254093e-11 1.5981397e-10 1.5560317e-11 5.75075e-10 8.7633445e-10
1.194559e-10 7.3284384e-10 7.873699e-11 9.371013e-10 9.11336e-11 9.640439e-11 3.5245595e-10 1.8307954e-10
1.7008369e-11 3.1615893e-10 4.9843574e-11 2.2692108e-10 2.6187255e-10 3.047922e-11 2.902318e-10 1.2856331e-10
3.498165e-10 2.0788585e-10 8.6671187e-10 1.2003627e-09 4.508132e-10 2.5889788e-10 1.0246282e-09 2.0132195e-10
1.6446774e-10 2.4619481e-10 1.5841002e-10 9.460598e-10 4.203198e-10 9.677597e-12 6.737407e-11 2.404139e-10
1.3556961e-11 2.0834506e-11 1.8849021e-10 1.1422229e-09 2.4239843e-10 9.564266e-11 4.788769e-10 1.7363129e-10
3.2886577e-10 6.37815e-10 2.5050567e-10 1.0844769e-10 3.5687867e-10 3.3934622e-10 7.5770873e-10 5.320333e-10
5.144271e-10 4.5670825e-10 5.3639967e-11 1.5364118e-10 2.8481115e-10 1.8831436e-10 9.0092606e-10 6.388909e-10
2.345666e-10 5.2560605e-11 7.8325196e-10 2.420418e-10 1.1274058e-10 6.2948646e-11 9.456819e-10 3.6319123e-10
3.438551e-10 2.9707137e-10 7.7321605e-10 2.903453e-10 3.9700002e-10 3.0044062e-10 9.347764e-10 2.4845495e-10
1.2735003e-10 5.925479e-11 6.9073425e-10 2.0968556e-10 4.289497e-10 6.4601907e-10 5.107171e-11 5.365131e-10
8.194627e-11 1.769193e-10 2.9577302e-11 5.6223587e-10 7.377475e-10 1.3565074e-11 5.5324173e-10 5.217755e-12
3.2412045e-11 6.181301e-10 8.034327e-11 2.61662e-11 1.817716e-11 5.8432953e-10 3.330137e-10 3.5135273e-11
5.4979166e-10 3.313279e-10 2.7208305e-11 7.935367e-10 1.456845e-11 1.3600003e-10 5.103372e-10 6.911702e-10
3.6509598e-10 8.913652e-10 1.5194629e-11 4.2566448e-10 4.824536e-10 4.5304602e-10 1.3902719e-10 1.01597813e-10
1.7532253e-10 2.9338232e-10 5.360112e-10 2.0956777e-10 1.0903105e-10 2.6695283e-11 6.489424e-10 5.911506e-11
00000000: 275d 9e30 f92c 4030 42a3 0530 4908 0930
00000010: 7880 0b30 99af 7a30 f308 0f30 4326 1930
00000020: b000 3130 fd03 0232 e32d 0932 00de 0332
00000030: b2f2 1232 a84a 1732 0610 1432 98bc 0332
00000040: b398 0632 8eda 0232 7f17 5e2e 945f 9730
00000050: 84a8 ae2f f464 e82d 41aa a32f 8cf7 182f
00000060: 94e3 3d30 56a5 102e c026 2b2f 67e8 1030
00000070: c86c 6430 0119 2730 3ac1 d52f 3ed3 892f
00000080: 732a 782f b6ee ac2f 6bbe ed2f 8c81 f52f
00000090: 92a3 3330 6326 472f 3ca0 242f 825b a330
000000a0: 8fe3 3b30 3070 d62f c47c dc2f 7813 bb2f
000000b0: 70f7 522f 5cac 022e b33d 6a2f b0fb 1b30
000000c0: 0809 b92e e239 af2e b2d2 3c30 7405 352e
000000d0: 56cf b02f 2694 cd2e 72bf 3d2e f3bc 5130
000000e0: bbb1 872d c72f 272c 7398 bb2f 6511 8330
000000f0: 20b1 5c2e 827d b82d 35d8 ed2f a412 1930
00000100: 4d99 5f30 df7b a52f 1fd0 962f 6c59 852f
00000110: 5dcc 7430 22e0 772f 1b3e 1f2f 3560 012f
00000120: a56c 0e2f bd3e ef2f b066 692f 65d7 3530
00000130: 57bc 092f edc5 752f 3a79 942e eed0 2730
00000140: efe2 512f ce59 ab2c 9ddf 212f ed2d 602d
00000150: 99aa 052e 545b 3f30 3318 ec2f b485 b22f
00000160: cadb 012e 9d7e b82e 6a43 6d2d 105e c12d
00000170: 28c3 572f 0e28 5430 85ba b42e bdec 012e
00000180: 5620 592d 0394 392d 4583 f72f c755 852e
00000190: e3fd af2d fc00 302e 622d f12f 71d1 a12e
000001a0: f15d da2e 7af3 8f2e 6463 1130 3d04 522f
000001b0: 5927 3530 e06c 392f 5cab 5430 22fa da2f
000001c0: ae31 7f30 b68f 362f 946d 5a2f 7056 5430
000001d0: 1e5b a430 50ea 7330 9861 1230 394f 7f30
000001e0: faef ad2e 30a8 612e 873c 0c2f b37c 4f30
000001f0: 6ef4 022f 0dfa 2f2e 2284 272f 6b85 f02f
00000200: 5d60 a62e 49de 6a30 bc11 b82d 7b72 1f2e
00000210: a2b7 2f2f b8de 882d 4e13 1e30 8ee2 7030
00000220: d957 032f 4d71 4930 fc24 ad2e 52cb 8030
00000230: a867 c82e d9fe d32e c4c3 c12f 4f4c 492f
00000240: 719b 952d 6acf ad2f e036 5b2e 9b80 792f
00000250: 49f7 8f2f 8d0c 062e 7f8e 9f2f 5b5b 0d2f
00000260: 4c50 c02f aa92 642f 6d3d 6e30 02fa a430
00000270: 51d6 f72f a354 8e2f e6d2 8c30 175b 5d2f
00000280: 8ed5 342f d758 872f 752c 2e2f 8506 8230
00000290: c112 e72f 0640 2a2d 3b28 942e 402b 842f
000002a0: 207f 6e2d 2343 b72d 473f 4f2f 65fc 9c30
000002b0: 8c42 852f 0852 d22e f7a1 0330 dde8 3e2f
000002c0: becb b42f 3e52 2f30 8ab7 892f 9f7a ee2e
000002d0: 3532 c42f bc8e ba2f 0347 5030 843e 1230
000002e0: 9767 0d30 f913 fb2f 3ce9 6b2e 26ee 282f
000002f0: 9b93 9c2f c80d 4f2f 09a5 7730 f39d 2f30
00000300: 50f4 802f fb29 672e 754c 5730 5b10 852f
00000310: 4eeb f72e f06c 8a2e 39f9 8130 9faa c72f
00000320: 4e09 bd2f 1451 a32f 3e8a 5430 789e 9f2f
00000330: c940 da2f 422b a52f 8579 8030 ed96 882f
00000340: d905 0c2f 7b4d 822e 1ade 3d30 3d8d 662f
00000350: 4ed1 eb2f 8d93 3130 a29d 602e c179 1330
00000360: a633 b42e 5b86 422f 1515 022e d58b 1a30
00000370: 5dca 4a30 aaa3 6e2d ed12 1830 5c95 b72c
00000380: b88c 0e2e 0ae9 2930 3dad b02e 0b29 e62d
00000390: 53e3 9f2d 899e 2030 8313 b72f cd86 1a2e
000003a0: 2620 1730 4226 b62f a853 ef2d 2e20 5a30
000003b0: 3c25 802d 9b88 152f ca47 0c30 c7fc 3d30
000003c0: b1b6 c82f 4004 7530 43a7 852d f302 ea2f
000003d0: a79d 0430 8f10 f92f addc 182f 7c6a df2e
000003e0: e8c4 402f e449 a12f 6f56 1330 156c 662f
000003f0: 06c3 ef2e 6fd0 ea2d 4361 3230 d2fe 812e
