HW6/lightning_logs/version_1/checkpoints/epoch=5-step=366.ckpt (torch, 513472 bytes, 33 tensors)

model.0.weight f4 [1, 3, 1, 1]
0	0xbe0eab17	-0.13932453
1	0x3f0193fa	0.5061642
2	0x3e19e262	0.15027764

model.2.weight f4 [128, 1, 3, 3]
0	0x3c8b1135	0.016975978
1	0x3c011be7	0.007880188
2	0x3c086879	0.0083256895
3	0x3c3a5c6f	0.011374577
4	0x3c723db9	0.014785224
5	0x3bbe703a	0.0058117183
6	0x3c7fdc84	0.01561654
7	0x3c64e563	0.013970706
8	0x3c2d6daf	0.010585233
9	0x3cbd1c10	0.02308467
10	0x3c8953f6	0.016763669
11	0x3c9e14f4	0.0192971
12	0x3cb2eb2f	0.02184066
13	0x3c8de21e	0.017319735
14	0x3caacdd0	0.020850092
15	0x3caa4011	0.020782502
16	0x3ca15f13	0.019698655
17	0x3c8c5d26	0.01713426
18	0x30a16501	1.1742999e-09
19	0xb0009ece	-4.6791804e-10
20	0x2f4422ab	1.7838413e-10
21	0x2fcfa08e	3.7767162e-10
22	0xafb8db43	-3.36252e-10
23	0xb044336a	-7.137745e-10
24	0x30c49ba4	1.4305113e-09
25	0xb091ab7a	-1.0598875e-09
26	0x30bae690	1.3598811e-09
27	0x30923546	1.0638039e-09
28	0xb3dad660	-1.0190411e-07
29	0x331d43ed	3.661619e-08
30	0x3387db75	6.3263464e-08
31	0xb272effc	-1.414082e-08
32	0x3373e3fa	5.678519e-08
33	0x3320c9e5	3.7436525e-08
34	0x333d199f	4.4028294e-08
35	0x33b24ea6	8.303077e-08
36	0xb44978ae	-1.8763487e-07
37	0x35479e4a	7.436362e-07
38	0x3247f5f3	1.1639247e-08
39	0xb2c560e4	-2.297788e-08
40	0x33d66a55	9.984493e-08
41	0x330bb3ab	3.2526867e-08
42	0xb297679f	-1.7625835e-08
43	0x3296f2b0	1.757266e-08
44	0xb1a41401	-4.7753024e-09
45	0xb14eb722	-3.0081044e-09
46	0x32135c4a	8.57751e-09
47	0xb0a52973	-1.2017111e-09
48	0xb28508c0	-1.5487217e-08
49	0x32b40ee1	2.0961524e-08
50	0xb28a72ab	-1.611746e-08
51	0x31e2cb46	6.600575e-09
52	0x311041c7	2.0992148e-09
53	0xb1839397	-3.829381e-09
54	0xbc6a2f39	-0.014293485
55	0xbc8cd1a8	-0.017189816
56	0xbc9ec3ee	-0.019380536
57	0xbc72216c	-0.014778476
58	0xbc93c028	-0.018035963
59	0xbca3fe91	-0.020018848
60	0xbc93babd	-0.01803338
61	0xbc9d1e53	-0.019179499
62	0xbca12e4a	-0.019675393
63	0x3cdec0c2	0.027191523
64	0x3cc0858c	0.02350118
65	0x3cc82c8d	0.024435306
66	0x3cd33854	0.025783695
67	0x3cb06c2d	0.021535957
68	0x3cba100d	0.022712732
69	0x3ce1b900	0.027554035
70	0x3ccd6ebd	0.025077218
71	0x3cd10fd5	0.025520245
72	0x3b755657	0.0037435496
73	0x3b4fd438	0.0031712186
74	0x3b4e34bf	0.0031464545
75	0x3b3dcf6e	0.002896275
76	0xbb52e55d	-0.0032180168
77	0xb9a80e08	-0.0003205391
78	0x3b65b892	0.003505264
79	0x39eddd96	0.00045369257
80	0x3b05083a	0.0020299093
81	0x3bfded47	0.007749233
82	0x3bbc22ce	0.0057414537
83	0x3ba4d60d	0.0050303997
84	0x3b9a68b4	0.0047121886
85	0x3b683844	0.0035433928
86	0x3b87cc53	0.0041442304
87	0x3bbea3f4	0.0058178846
88	0x3be59c60	0.0070071667
89	0x3b82c27d	0.00399047
90	0xb9f55296	-0.00046791573
91	0xb9e0ebab	-0.00042900196
92	0xb9dcec80	-0.00042137876
93	0xb98c2671	-0.00026731522
94	0xb9d396c9	-0.000403574
95	0xb9d486c5	-0.00040536202
96	0xb99cb2ec	-0.00029887946
97	0xb9e3eee2	-0.00043474796
98	0xb9ecb917	-0.0004515133
99	0x3cc1b9de	0.023648199
100	0x3caea9d1	0.02132121
101	0x3cb84c00	0.022497177
102	0x3ca136cb	0.019679448
103	0x3cb46c7a	0.022024382
104	0x3cb37305	0.021905432
105	0x3ccbf10d	0.024895215
106	0x3cac7448	0.021051541
107	0x3cb6a1fc	0.022294037
108	0xbadf97d9	-0.0017058804
109	0xbb02d234	-0.0019961717
110	0xbb03b1dd	-0.0020095028
111	0xbb0cb931	-0.0021472687
112	0xbb18b12d	-0.0023298964
113	0xbb062788	-0.002047034
114	0xbae9a063	-0.0017824288
115	0xbb10ca58	-0.0022093263
116	0xbae5a5a4	-0.0017520678
117	0x3ac4c426	0.001501207
118	0x3a99214c	0.0011682897
119	0x3ab3ba48	0.0013712132
120	0x39fbd656	0.00048034143
121	0x3b59642a	0.0033171275
122	0x3a8e9a18	0.0010879664
123	0x3ba7376c	0.0051030423
124	0xb9b813df	-0.0003511002
125	0x3ac1f799	0.0014798521
126	0x30e4e836	1.6655182e-09
127	0xb0e259b0	-1.6469155e-09
128	0xb137d2a0	-2.6749731e-09
129	0x310d644f	2.057522e-09
130	0x2f4e8e2d	1.8786102e-10
131	0xb1127378	-2.1311433e-09
132	0xb1bf7ee8	-5.573259e-09
133	0x31378e46	2.6710878e-09
134	0x308c3bf4	1.020338e-09
135	0x3d422490	0.04739815
136	0x3d1f3f4a	0.038878717
137	0x3d0c9957	0.034325924
138	0x3d4b6c1c	0.049663648
139	0x3d33d442	0.043903597
140	0x3d1e64aa	0.03867022
141	0x3d359c89	0.044338737
142	0x3cf992d9	0.03046553
143	0x3d21131b	0.03932486
144	0xafb62c5a	-3.313712e-10
145	0x30371d30	6.661649e-10
146	0x30df9a76	1.6269286e-09
147	0x2fac853b	3.1381284e-10
148	0x2e9538f9	6.785856e-11
149	0x2fcffe1e	3.7833642e-10
150	0xafdafd2e	-3.9833864e-10
151	0x2f64d083	2.0810557e-10
152	0x2fc07e6d	3.5014427e-10
153	0x3c26645f	0.010155766
154	0x3c2120d6	0.009834489
155	0x3c44cd77	0.012011877
156	0x3c14a58a	0.009072671
157	0x3c0e0ab1	0.008669541
158	0x3c494b29	0.012285986
159	0x3c624363	0.013810012
160	0x3c5758f1	0.013143764
161	0x3c882771	0.01662037
162	0xb01112c0	-5.277734e-10
163	0x30b445cd	1.3116562e-09
164	0xaf7db485	-2.307435e-10
165	0x2f910d3f	2.6384758e-10
166	0x2e0b5dae	3.1688145e-11
167	0x3028ff05	6.148045e-10
168	0xb0a4da4f	-1.1994618e-09
169	0xb05dcbe4	-8.068908e-10
170	0x2e7db40c	5.7685454e-11
171	0x3116eb97	2.196179e-09
172	0x310c151b	2.0384678e-09
173	0x2fd99515	3.9578e-10
174	0xb168eb7c	-3.38943e-09
175	0xb10d20e2	-2.0536892e-09
176	0xb09905dd	-1.1133882e-09
177	0xb0d6be7d	-1.5624689e-09
178	0xafe7ffbe	-4.220037e-10
179	0x2f91b803	2.6506095e-10
180	0x3ccaf05e	0.02477282
181	0x3cbc781e	0.023006495
182	0x3ccfd3bf	0.025369523
183	0x3cd8aa5a	0.026448417
184	0x3cbf09d8	0.023320124
185	0x3cc7f571	0.024409028
186	0x3cd6e5cc	0.026232623
187	0x3cc0c0cb	0.02352943
188	0x3cde21e2	0.027115766
189	0xbbd7f543	-0.006590517
190	0xbbdb448e	-0.006691522
191	0xbbf2750d	-0.0073992074
192	0xbbdf7a42	-0.006819994
193	0xbbe1eb69	-0.006894518
194	0xbbb629aa	-0.005559166
195	0xbbf2b98d	-0.0074073733
196	0xbbd50704	-0.0065010805
197	0xbbe437f6	-0.006964679
198	0x3cae98c3	0.021313077
199	0x3c90e1a9	0.017685728
200	0x3cbebc02	0.023283008
201	0x3c7d63cb	0.015465687
202	0x3c11ce88	0.008899339
203	0x3c84caee	0.016210046
204	0x3ca8d342	0.020608548
205	0x3c5fc480	0.013657689
206	0x3ca85e41	0.020552756
207	0x3d0b3886	0.03398945
208	0x3d0a120b	0.033708613
209	0x3d0f43df	0.034976836
210	0x3d1420de	0.036164157
211	0x3cb62060	0.022232234
212	0x3d087403	0.033313762
213	0x3d024d5b	0.031812053
214	0x3cf80fe8	0.030281022
215	0x3d0764c3	0.03305508
216	0xb58dc7ea	-1.0563501e-06
217	0x3600dd91	1.9202455e-06
218	0x3477693f	2.3041956e-07
219	0xb3799e41	-5.811876e-08
220	0x351c2ec8	5.8182604e-07
221	0xb60c5c1c	-2.091524e-06
222	0xb5617df0	-8.4002295e-07
223	0x34e07d29	4.1814317e-07
224	0x35bf4e23	1.425335e-06
225	0x3c771334	0.015080262
226	0x3c37ebca	0.01122565
227	0x3c1e4821	0.009660752
228	0x3c5b14b6	0.013371637
229	0x3c1a62b2	0.009422945
230	0x3c4408ac	0.011964958
231	0x3c8d1ade	0.017224725
232	0x3c5a0bed	0.013308507
233	0x3c7ae50d	0.015313399
234	0x3cb39538	0.021921739
235	0x3c9bb27b	0.019006005
236	0x3c7ea297	0.015541694
237	0x3c8255c6	0.01591004
238	0x3c4f120d	0.012638581
239	0x3c9994f4	0.018747784
240	0x3caadef4	0.020858265
241	0x3ca13894	0.019680299
242	0x3ca27066	0.019828986
243	0x3c8c7ac4	0.017148383
244	0x3c995b05	0.01872016
245	0x3cb72b8a	0.022359628
246	0x3cc386c4	0.023867972
247	0x3c9c2b9a	0.01906376
248	0x3ca0da53	0.019635355
249	0x3cadee07	0.021231664
250	0x3ca29890	0.019848138
251	0x3cae1678	0.021250948
252	0x3ce4f8ae	0.027950611
253	0x3cd4ae31	0.025961967
254	0x3cfc8237	0.03082381
255	0x3cd32775	0.02577565

model.2.bias f4 [128]
0	0x3ba1118b	0.0049154214
1	0x3ddaebd0	0.10689509
2	0x30fffc23	1.8625353e-09
3	0x32fe9492	2.9637054e-08
4	0xbb6a0a3e	-0.0035711671
5	0x33295ddf	3.9433754e-08
6	0x3d93c904	0.07216075
7	0x3ce9170e	0.028453376
8	0xbd427e66	-0.047483824
9	0x3cf48c40	0.029852033
10	0x394f8962	0.00019792237
11	0x3d363849	0.04448727
12	0xbb90fc72	-0.004424625
13	0x3d38e2a8	0.04513803
14	0xadfd65c3	-2.8807961e-11
15	0x3e18de13	0.14928465
16	0x30e61673	1.6741083e-09
17	0x3dc81b1d	0.097707964
18	0x30e8f74b	1.6950507e-09
19	0xb211f9b4	-8.496887e-09
20	0x3d894496	0.06702535
21	0x3b042ac0	0.0020167083
22	0x3cf04aab	0.02933248
23	0x3df19905	0.11796764
24	0x34a1b60b	3.012104e-07
25	0x3ce91ff2	0.028457616
26	0x3c775598	0.015096091
27	0x3d8f65db	0.07001849
28	0x3d353cb7	0.044247355
29	0xb3d92659	-1.0111825e-07
30	0x3cffdf07	0.031234277
31	0x3d836bf1	0.064170726
32	0xb0ffea25	-1.862024e-09
33	0x3db4925a	0.08816977
34	0x3e01f911	0.12692668
35	0x35318736	6.6134396e-07
36	0xb096b854	-1.0966326e-09
37	0x3decf90b	0.11570939
38	0xb0343df0	-6.5571637e-10
39	0xbcbdcb1a	-0.023168135
40	0x315904f4	3.1580472e-09
41	0x3208cc01	7.962627e-09
42	0x3e0b4a37	0.1360253
43	0x391cdf82	0.00014960582
44	0xbcf2f8c0	-0.029659629
45	0x3c2b8676	0.01046907
46	0xbc24478c	-0.010026824
47	0xbcf48f50	-0.029853493
48	0x3b11b115	0.0022230793
49	0x31e7e28a	6.7487393e-09
50	0x3db105cb	0.08643683
51	0x3d338de0	0.043836474
52	0x3dd142de	0.10217832
53	0xbc1af9bd	-0.009458956
54	0xbce01246	-0.027352463
55	0x3d3c8bed	0.04603188
56	0x2f7166b6	2.1955313e-10
57	0x3c6d1a2e	0.014471574
58	0xbd1f4a47	-0.038889196
59	0x3d91f010	0.071258664
60	0xbb38cdc2	-0.0028198813
61	0x3d71f681	0.059072975
62	0x31163b00	2.186141e-09
63	0x3d9b4815	0.07582108
64	0x3d46d664	0.048544303
65	0x3d0868b4	0.033302978
66	0x30057ff5	4.8566956e-10
67	0x3d5aceb8	0.0534198
68	0xaf83d6e5	-2.3981453e-10
69	0xbbd108fb	-0.0063792444
70	0x3dad03e6	0.08448009
71	0x3e1b17ce	0.151458
72	0xbc85858c	-0.016299032
73	0xb9c971c3	-0.00038422467
74	0x3c5f6e37	0.013637117
75	0x3d5a980b	0.053367656
76	0x3d27acbd	0.04093622
77	0xb38dcccd	-6.603077e-08
78	0x3d147185	0.036241073
79	0xbb182904	-0.0023217807
80	0x319e19cd	4.6013384e-09
81	0x3d81cbed	0.06337724
82	0xba9650a4	-0.0011468125
83	0x3dd14879	0.10218901
84	0xbd020b6d	-0.031749178
85	0x334ec283	4.814002e-08
86	0xba094ed9	-0.00052378845
87	0x30c69c43	1.4450808e-09
88	0x3de4fc9e	0.111809954
89	0x3c8e0cd8	0.017340109
90	0x2f0dfbda	1.2913351e-10
91	0x3dbbbf38	0.091673315
92	0x3dc20f07	0.094755225
93	0xbcc2890a	-0.023746986
94	0xb3d6637c	-9.983248e-08
95	0xbd5f1d3c	-0.05447124
96	0x30b230a8	1.2965033e-09
97	0xb99eaa1c	-0.0003026285
98	0xbc8884ed	-0.016664946
99	0xbba3f9cc	-0.0050041433
100	0x3e51dd38	0.20494545
101	0x3d5ce3df	0.053928252
102	0x3c95d7be	0.01829135
103	0xba7b5acc	-0.000958842
104	0xb3ae7523	-8.1238134e-08
105	0x3c0013db	0.007817234
106	0xb3ae5bc3	-8.119198e-08
107	0xbc85fd6f	-0.016356198
108	0x3c1fbbb3	0.009749341
109	0x329451e4	1.7266707e-08
110	0x306b70e6	8.565294e-10
111	0xba3c8b18	-0.00071923574
112	0x30b26dfb	1.2982463e-09
113	0x30a94495	1.231586e-09
114	0x3c7b0920	0.015322
115	0xbc744612	-0.014909284
116	0xbbed3858	-0.0072393827
117	0x3d1c2901	0.038125042
118	0xbd0afbe8	-0.033931643
119	0x335620e9	4.985569e-08
120	0x34f4983c	4.5559307e-07
121	0x3d8b3dc8	0.06798893
122	0x3397c307	7.066961e-08
123	0x3db36531	0.08759535
124	0x30916250	1.0578081e-09
125	0x2f6e8ce2	2.1696026e-10
126	0x3c19a718	0.009378217
127	0x3dfa15e8	0.122112095

model.5.weight f4 [32, 128, 3, 3]
0	0xb63a8bef	-2.7797612e-06
1	0x3375050c	5.7048098e-08
2	0xb189ec52	-4.0140913e-09
3	0xb0648c6d	-8.3145474e-10
4	0xb2a509d5	-1.9213e-08
5	0xb29932ad	-1.7834589e-08
6	0x3130751c	2.567794e-09
7	0xb9d55848	-0.000406923
8	0xb53aa945	-6.953672e-07
9	0xbab8e4b1	-0.0014106241
10	0xbb309990	-0.0026947
11	0xbb3ef216	-0.0029135994
12	0xbb0d03f5	-0.002151725
13	0xbb08ca3d	-0.0020872497
14	0xbb0cc679	-0.0021480604
15	0xbb43daf5	-0.0029885147
16	0xbb7a7cbc	-0.003822132
17	0xbb90a2a6	-0.0044139205
18	0xae1534e0	-3.392564e-11
19	0xad89c2a7	-1.566154e-11
20	0xaee0256c	-1.0192988e-10
21	0x2d9fee50	1.818204e-11
22	0xadf53234	-2.787557e-11
23	0x2e2806b9	3.820475e-11
24	0x2ebc0160	8.5494944e-11
25	0xadb4d24e	-2.0557025e-11
26	0xae6541c9	-5.2127e-11
27	0x2e012a8a	2.9368986e-11
28	0xadee7667	-2.7110049e-11
29	0xaecc569f	-9.292233e-11
30	0xae7dd8cb	-5.771809e-11
31	0xae53f5fd	-4.8194327e-11
32	0x2c08678a	1.9384238e-12
33	0x2eedd353	1.0815051e-10
34	0x2f1b47d4	1.4122686e-10
35	0xaf173354	-1.3751605e-10
36	0x2f88b9ce	2.4870278e-10
37	0xb04015cf	-6.9880185e-10
38	0x2ed6577b	9.747133e-11
39	0x2f249f64	1.497234e-10
40	0xafb0a720	-3.2132963e-10
41	0x2fbfa896	3.4862485e-10
42	0xaf2c1edf	-1.5654276e-10
43	0xb0383174	-6.7009087e-10
44	0xaf2b3d35	-1.5574105e-10
45	0xae3d5830	-4.305195e-11
46	0xae9d277e	-7.1465486e-11
47	0x2dec15ad	2.683972e-11
48	0x2ea094e8	7.302409e-11
49	0xad9e87b0	-1.8022778e-11
50	0x2c67bd95	3.2932314e-12
51	0xaea73f78	-7.605555e-11
52	0x2e1c77f6	3.557684e-11
53	0xae293a1a	-3.8477756e-11
54	0xb1ff85a0	-7.436668e-09
55	0xb27813dd	-1.4440016e-08
56	0x31783e0d	3.6124022e-09
57	0x31c797c5	5.8089165e-09
58	0xb17f1ffb	-3.7125563e-09
59	0xb0210419	-5.857728e-10
60	0x32df8d53	2.6024884e-08
61	0xb1fde71d	-7.3895436e-09
62	0x310b5045	2.027279e-09
63	0xb827b756	-3.9986648e-05
64	0xb3ae94b5	-8.129556e-08
65	0xb5956090	-1.1129468e-06
66	0xb78971cf	-1.6384669e-05
67	0xba7b7a19	-0.0009593084
68	0xb9b34caf	-0.00034198674
69	0xb86d616d	-5.6595938e-05
70	0xbaf39213	-0.0018582962
71	0xba862ea5	-0.001023729
72	0x34212abe	1.5009843e-07
73	0x30c80e22	1.4555932e-09
74	0x32e34490	2.6457457e-08
75	0xb0195f79	-5.579675e-10
76	0xafb0deeb	-3.2172606e-10
77	0xaf13b568	-1.343402e-10
78	0x2fcbc271	3.7063644e-10
79	0xb2175434	-8.808502e-09
80	0xb08c6118	-1.0213936e-09
81	0xb8069981	-3.209105e-05
82	0xb9fb843c	-0.00047972973
83	0xba324eb2	-0.00068018876
84	0xb7a07ced	-1.913166e-05
85	0xb7ac263d	-2.0521804e-05
86	0xb98dc7be	-0.00027042435
87	0xbaca2c96	-0.0015424665
88	0xb9f85f52	-0.00047373265
89	0xb97fa855	-0.00024381404
90	0x30cf341d	1.5076044e-09
91	0xb1b5da3d	-5.292604e-09
92	0xad12f025	-8.352462e-12
93	0xb2a73858	-1.9466981e-08
94	0x312a98a9	2.4825033e-09
95	0xaff83f24	-4.51558e-10
96	0xb2de9160	-2.591031e-08
97	0xb0c38a18	-1.4227366e-09
98	0xb144097d	-2.8527147e-09
99	0xba01759e	-0.0004938486
100	0xb6008b5e	-1.9154609e-06
101	0xb8158539	-3.564844e-05
102	0xb9d1eeeb	-0.00040041594
103	0xbab0d6c8	-0.0013491744
104	0xbaa3eadf	-0.001250591
105	0xba7d4eb6	-0.0009662913
106	0xbb099c7c	-0.0020997813
107	0xbb418bfc	-0.00295329
108	0xb2a2bf9e	-1.894642e-08
109	0x341308c0	1.3693625e-07
110	0xb8889736	-6.5131506e-05
111	0xb2f7527a	-2.879209e-08
112	0xb85b3aee	-5.226855e-05
113	0x32886f86	1.5883199e-08
114	0xb39cc1a0	-7.299536e-08
115	0xb8e58599	-0.000109444554
116	0x33472eb4	4.6375774e-08
117	0xb80a3021	-3.2946587e-05
118	0xba3a16f7	-0.0007098759
119	0xbabf10c4	-0.001457714
120	0xb5216824	-6.012872e-07
121	0x347626ad	2.2924606e-07
122	0x34a2b72f	3.0308135e-07
123	0xb9c45f06	-0.0003745483
124	0xba1b9be3	-0.00059360097
125	0xb88a214f	-6.586557e-05
126	0xae83c02d	-5.9913276e-11
127	0xaed860cd	-9.839738e-11
128	0xab8f84b9	-1.0197599e-12
129	0xad95f7f6	-1.7049456e-11
130	0x2bbc9be5	1.3401473e-12
131	0x2c00a27f	1.8280097e-12
132	0x2e036feb	2.9885355e-11
133	0x2ea497d9	7.48483e-11
134	0x2eec78c2	1.07534884e-10
135	0xbbc938ae	-0.00614079
136	0xbc0c9a4b	-0.008581708
137	0xbb89fbcb	-0.0042109243
138	0xbb61b07f	-0.0034437475
139	0xbb7904e0	-0.003799729
140	0xbc366182	-0.011131646
141	0xbb9a6cbb	-0.0047126687
142	0xbc241f8a	-0.010017285
143	0xbba087f2	-0.0048990184
144	0x2e26870d	3.786398e-11
145	0x2e21693f	3.670064e-11
146	0x2e2a57d0	3.8731518e-11
147	0xae95e98d	-6.8172225e-11
148	0x2cb0114f	5.0041425e-12
149	0x2e23f393	3.7278246e-11
150	0x2e8ce10e	6.406441e-11
151	0xad83cda4	-1.4984299e-11
152	0x2c2665a9	2.3646452e-12
153	0xbab02d25	-0.0013441188
154	0xbb4b922c	-0.0031062467
155	0xbb032779	-0.0020012541
156	0xba27ccf6	-0.0006401086
157	0xbb11e412	-0.0022261185
158	0xbb1d2402	-0.002397776
159	0xbb97e9d9	-0.004636031
160	0xbba5c182	-0.0050584683
161	0xbb0bcc61	-0.0021331536
162	0xae8575d1	-6.069068e-11
163	0xae2f8684	-3.9909867e-11
164	0xade4d8cc	-2.6016876e-11
165	0xaddcf8b7	-2.5121556e-11
166	0xacc8e45f	-5.709696e-12
167	0xad40bab1	-1.095539e-11
168	0xad8035e3	-1.4575846e-11
169	0xae3026a9	-4.0052104e-11
170	0x2e3d22c3	4.30045e-11
171	0x2f7d2205	2.3022302e-10
172	0x2e1dd1bc	3.588395e-11
173	0xafb60729	-3.3110695e-10
174	0xae838af9	-5.981877e-11
175	0xae7061be	-5.4656495e-11
176	0x2f8dec0c	2.5815472e-10
177	0xaecb27a6	-9.238414e-11
178	0xaf75a7c7	-2.2342227e-10
179	0x2e803361	5.829893e-11
180	0xba84fa5f	-0.0010145417
181	0xb9b3ac36	-0.00034269848
182	0xba83bff7	-0.0010051717
183	0xb9943b52	-0.00028272957
184	0xba054cf2	-0.0005085013
185	0xba8f7d74	-0.0010947422
186	0xba0edb00	-0.00054495037
187	0xbb02fd56	-0.0019987426
188	0xbb361d35	-0.0027788405
189	0x2f3959a2	1.6857496e-10
190	0xaf8232f0	-2.3683056e-10
191	0xad86b3c0	-1.5313861e-11
192	0xafe77c09	-4.2106788e-10
193	0xaf97977d	-2.757438e-10
194	0xaf16efa8	-1.3727564e-10
195	0xb00bf553	-5.091653e-10
196	0x2f29594e	1.5402188e-10
197	0xaf16562c	-1.3673035e-10
198	0xba46535d	-0.00075655227
199	0xb216d542	-8.779638e-09
200	0xb88d3f24	-6.735165e-05
201	0xb95be655	-0.00020971273
202	0xbb0b83f4	-0.0021288367
203	0xbaa083b1	-0.0012246278
204	0xbb1cce96	-0.0023926846
205	0xbc27a6f8	-0.01023268
206	0xbbcd6bf4	-0.0062689725
207	0xba60a168	-0.0008568973
208	0xbb1eb798	-0.0024218317
209	0xbb090511	-0.002090756
210	0xba80778f	-0.0009801256
211	0xbb0684d7	-0.0020525956
212	0xbaa8f9e1	-0.0012891853
213	0xbb271095	-0.0025492061
214	0xbb1cd23b	-0.0023929018
215	0xbb439e8b	-0.0029849138
216	0xaebb3b47	-8.514305e-11
217	0xae954e18	-6.789608e-11
218	0xae5e3a3a	-5.052867e-11
219	0x2e8a5710	6.290979e-11
220	0xacdba581	-6.242729e-12
221	0x2df1e05b	2.7498162e-11
222	0x2df4bc5a	2.7823233e-11
223	0xab09f2f5	-4.900935e-13
224	0x2d8d74ea	1.6081764e-11
225	0xb9d4b743	-0.00040572332
226	0xba483502	-0.00076372933
227	0xb90c878f	-0.0001340194
228	0xb79f093a	-1.8958573e-05
229	0xb79a8087	-1.841808e-05
230	0xba1b0b55	-0.00059144694
231	0xbaa2b453	-0.001241336
232	0xbb036784	-0.0020050714
233	0xba5448ff	-0.00080980355
234	0xb85e09e0	-5.293812e-05
235	0x34269054	1.5512461e-07
236	0x3486716c	2.504197e-07
237	0x3331d361	4.1403272e-08
238	0xb9f77dab	-0.0004720514
239	0xb9e0b3d4	-0.00042858592
240	0xb79eec44	-1.8945088e-05
241	0xba4663e8	-0.0007567988
242	0xba11bac8	-0.00055591436
243	0xb9efc131	-0.0004572957
244	0xb8771788	-5.8911304e-05
245	0xba2b4dd5	-0.000653473
246	0xb9df29d5	-0.00042565042
247	0xba4e0934	-0.0007859648
248	0xba7c1a67	-0.00096169714
249	0xb9d9cdc2	-0.00041542767
250	0xbad323ea	-0.0016108726
251	0xbaa6e287	-0.0012732305
252	0xb9443546	-0.00018711863
253	0xb9b12c45	-0.00033793054
254	0xba60e303	-0.0008578749
255	0xba2ce4bb	-0.0006595363

model.5.bias f4 [32]
0	0xbcfbc57e	-0.03073382
1	0xba398ff6	-0.0007078642
2	0xb964196d	-0.00021753246
3	0x3c9022e0	0.017594755
4	0xbc41049f	-0.011780887
5	0xbbbef238	-0.0058272146
6	0x3d148f3e	0.03626942
7	0xb80a7940	-3.3014687e-05
8	0xbcc06a6e	-0.02348825
9	0x3c7b90c8	0.015354343
10	0xb0ba4207	-1.3552047e-09
11	0x3ccef947	0.02526535
12	0x3cfee160	0.031113327
13	0x3cc7c0ea	0.02438398
14	0x3caf6fed	0.021415675
15	0xb0c4422d	-1.4279685e-09
16	0x3d210f40	0.039321184
17	0x3d3e2357	0.04642042
18	0xb2ba45c9	-2.1684984e-08
19	0xad648525	-1.29898635e-11
20	0x3d965a87	0.073414855
21	0x3c12fb59	0.008971059
22	0x3d570e15	0.052503664
23	0xbc44618d	-0.011986149
24	0xbc811c6a	-0.01576062
25	0x3d6d99ad	0.058007885
26	0x3c091d6a	0.008368829
27	0xbc835c99	-0.016035365
28	0xbb3f1fc7	-0.0029163228
29	0x3d3b4c3e	0.045727007
30	0xbd6f8538	-0.058476657
31	0xbd2020f2	-0.03909392

model.8.weight f4 [8, 32, 3, 3]
0	0x2c9184e9	4.135904e-12
1	0xaf801ae3	-2.3302169e-10
2	0xae6b8fa5	-5.3560396e-11
3	0x2f6a21d3	2.1294193e-10
4	0xac88fa8b	-3.8931683e-12
5	0xaecc4792	-9.2895594e-11
6	0x2c943885	4.212688e-12
7	0x2f79bde5	2.2713882e-10
8	0xad847bce	-1.5061643e-11
9	0xad8a8ca8	-1.5751248e-11
10	0x2d59f0c1	1.238848e-11
11	0x2f165239	1.3671632e-10
12	0xae807996	-5.842364e-11
13	0xadf78f59	-2.8144308e-11
14	0xae51e4e0	-4.772438e-11
15	0x2daf7d0f	1.9950734e-11
16	0x2f854695	2.424271e-10
17	0x2f604e8d	2.0400588e-10
18	0xae70782d	-5.467642e-11
19	0x2f46d829	1.808479e-10
20	0x2f33307b	1.6297179e-10
21	0xae0cd94a	-3.2025306e-11
22	0x2eb0ddef	8.042977e-11
23	0xae5581b5	-4.8545796e-11
24	0x2f59c344	1.9805407e-10
25	0x2d913167	1.650653e-11
26	0xaec5e24e	-8.9987226e-11
27	0xbc26e789	-0.010187038
28	0x3cc27d7e	0.02374148
29	0x3b72fa5a	0.003707549
30	0xbc939463	-0.018015092
31	0x3d3d2f69	0.046187792
32	0x3bbae4c1	0.005703539
33	0xbc8d4bf8	-0.017248139
34	0x3d5d213f	0.053986784
35	0x3ce5375c	0.027980499
36	0x2d8a68a1	1.5735248e-11
37	0x2e9ddd8d	7.178889e-11
38	0x2e3e6756	4.329278e-11
39	0xae2a427e	-3.8712582e-11
40	0xae48c904	-4.5653273e-11
41	0x2d99740b	1.744562e-11
42	0xae7fab23	-5.8132287e-11
43	0xad1d72a1	-8.9498695e-12
44	0x2f2fb0ac	1.5978924e-10
45	0xbc0e9a56	-0.008703789
46	0xbb00e890	-0.0019669868
47	0xbb2e81b7	-0.002662761
48	0xbb951dc6	-0.0045506684
49	0xbb3a9e6c	-0.0028475774
50	0xbaee2cba	-0.0018171289
51	0xbab4cc61	-0.001379382
52	0xbb83f03f	-0.0040264423
53	0xbbdf1b4f	-0.0068086754
54	0x3c78a2ef	0.015175565
55	0x3d14a2c1	0.036288027
56	0x3cfda727	0.030963494
57	0x3c8974c5	0.016779313
58	0x3d8fea4f	0.07027113
59	0x3c76f04c	0.01507194
60	0xbcadf2ce	-0.021233942
61	0x3d35a15b	0.044343334
62	0x3d2d4a94	0.04230745
63	0x301db2cb	5.737035e-10
64	0xb0cddca4	-1.4978423e-09
65	0xb0e2c514	-1.6499677e-09
66	0x319de424	4.595238e-09
67	0x30d98ddb	1.5829146e-09
68	0x30a58ccb	1.2045346e-09
69	0xaf8ce81f	-2.5630784e-10
70	0x30c3780d	1.4222238e-09
71	0xb0ecf5f9	-1.724117e-09
72	0xae8f8193	-6.525904e-11
73	0xaf6cfe3f	-2.1554401e-10
74	0xaf48df0b	-1.8269135e-10
75	0x2f14af38	1.3522772e-10
76	0x2d66240a	1.3081989e-11
77	0x2e598a42	4.9462885e-11
78	0x2a86e930	2.3964988e-13
79	0xae8d715b	-6.4320736e-11
80	0x2d82f976	1.4890072e-11
81	0xbc96f5ca	-0.018427748
82	0x3cd69935	0.026196102
83	0x3d3859eb	0.045007627
84	0xbc1435d1	-0.009046034
85	0x3c9b8702	0.018985275
86	0x3cc746a3	0.024325674
87	0xbcc646b7	-0.024203641
88	0x3be7de63	0.007076071
89	0x3d08295b	0.033242565
90	0x328fde84	1.674858e-08
91	0xb3adcb6e	-8.092944e-08
92	0xb3c5113f	-9.1766644e-08
93	0x3243ae02	1.1390059e-08
94	0xb3bf11b5	-8.8973515e-08
95	0xb27fc95b	-1.48887365e-08
96	0xb25c1ea3	-1.2812651e-08
97	0x3316cffa	3.511375e-08
98	0xb2b276d7	-2.077597e-08
99	0xbabd14cf	-0.0014425757
100	0x3d589874	0.052879766
101	0x3c8aa09b	0.016922286
102	0x3b5c88a0	0.003365077
103	0x3cead042	0.028663758
104	0x3cee258a	0.029070634
105	0xbcb2b778	-0.021816
106	0x3d05579a	0.032554246
107	0x3d205e6e	0.039152555
108	0x3c1a9132	0.009434031
109	0x3c5a6762	0.013330312
110	0x3d191f42	0.037383325
111	0x3ca8dc32	0.02061281
112	0x3d2a55c8	0.041585714
113	0x3d09f072	0.033676572
114	0xbca8c2da	-0.020600725
115	0x3d83f7b4	0.0644373
116	0x3d0a1e6f	0.03372043
117	0x3c2e484a	0.010637352
118	0x3d39a704	0.045325294
119	0x3d23fdb6	0.04003688
120	0x3c4947f9	0.012285226
121	0x3d3627e4	0.044471636
122	0x3c059e2d	0.008155388
123	0xbc6a4e53	-0.0143009005
124	0x3d43309a	0.047653772
125	0x3d1eec3d	0.038799513
126	0xbc5af6fc	-0.01336455
127	0x3c94811c	0.01812797
128	0xbc9839d2	-0.018582258
129	0xbc826549	-0.015917437
130	0x3d6dfc70	0.05810207
131	0x3b308662	0.0026935567
132	0xbd2839c7	-0.041070726
133	0x3c7414e7	0.014897562
134	0x3cfe7222	0.031060282
135	0x2f258e3e	1.5057197e-10
136	0x300f9505	5.2234866e-10
137	0x301857b5	5.5421917e-10
138	0xaf5781d5	-1.9600262e-10
139	0x2f881467	2.4752753e-10
140	0x303f63e7	6.9627365e-10
141	0x2f8f6ea7	2.6090172e-10
142	0xafc4a89b	-3.5771994e-10
143	0xaf88590f	-2.4801536e-10
144	0x3d0bfdc1	0.034177545
145	0x3ce1bb47	0.027555121
146	0x3cfdbc9a	0.030973721
147	0x3cadf364	0.021234222
148	0x3d9159b5	0.070971884
149	0x3d2ca0ad	0.04214542
150	0xbc94ef84	-0.018180616
151	0x3d295b10	0.04134661
152	0x3d3dd475	0.046345193
153	0xbc0f4371	-0.008744107
154	0x3d1a9eac	0.037748978
155	0x3d09090f	0.033455905
156	0x3b56393c	0.0032687923
157	0x3d50abf6	0.050945245
158	0x3cf4e567	0.029894544
159	0xbcd55389	-0.02604081
160	0x3d9021c3	0.070376895
161	0x3cc3a0d7	0.023880405
162	0xb2a14dd7	-1.8778264e-08
163	0x338bf400	6.517075e-08
164	0x33820675	6.054771e-08
165	0x3179e2c7	3.6363177e-09
166	0xb287cfd1	-1.5810572e-08
167	0xb2a39a92	-1.9045988e-08
168	0xb26cc571	-1.3781901e-08
169	0xb3590d75	-5.053649e-08
170	0x33a863f1	7.841289e-08
171	0x2e6d4646	5.3949976e-11
172	0x2f09de0b	1.2538963e-10
173	0x2ebb2e05	8.51195e-11
174	0xafa531dd	-3.0048755e-10
175	0xaf267bc3	-1.5141581e-10
176	0x30101573	5.2417376e-10
177	0x2f196f77	1.3954869e-10
178	0xafc747d9	-3.624894e-10
179	0xaf8472b7	-2.409217e-10
180	0xbca69aaf	-0.02033743
181	0x3d52f4b8	0.051502913
182	0x3d0cb80c	0.03435521
183	0xbcfa8aae	-0.030583706
184	0x3cb10cba	0.021612514
185	0x3c9e2c9d	0.019308383
186	0xbcdc34df	-0.02688068
187	0x3cb37d54	0.021910347
188	0x3d46edc3	0.04856659
189	0x3c24bbaf	0.010054513
190	0x3cbc9d5d	0.023024255
191	0x3cbed439	0.023294555
192	0x3c93160d	0.01795485
193	0x3d81b57b	0.06333443
194	0x3d922448	0.07135826
195	0x3bca9007	0.00618172
196	0x3c7b4feb	0.015338878
197	0x3d4ff5d6	0.050771557
198	0xbc26bbfe	-0.010176657
199	0x3d62cde8	0.05537215
200	0x3d3caf9b	0.046065908
201	0xbc538fec	-0.012912732
202	0x3cd6b713	0.026210343
203	0x3d05c3de	0.032657497
204	0xbd079f16	-0.0331107
205	0x3d36f1ca	0.04466418
206	0x3d88381f	0.06651329
207	0x2f26c8a4	1.5168894e-10
208	0x2f09175a	1.2468374e-10
209	0xaf38318b	-1.6752304e-10
210	0x2ed40e01	9.6431314e-11
211	0xaf183817	-1.3844247e-10
212	0xad48f01e	-1.14220005e-11
213	0xae9d2e23	-7.147729e-11
214	0xae6de1e4	-5.4088192e-11
215	0xadc64646	-2.2541202e-11
216	0x3c2439a3	0.010023507
217	0x3d9460a7	0.072449975
218	0x3d2c285e	0.042030685
219	0x3b9e0080	0.004821837
220	0x3d735820	0.059410214
221	0x3d189a9f	0.037256833
222	0x3c5c8419	0.013459229
223	0x3d827ad7	0.06371086
224	0x3d824458	0.06360692
225	0x3c1b144e	0.00946529
226	0x3c852dbf	0.016257165
227	0x3cac0c85	0.021002064
228	0xbbb4fb0d	-0.0055230916
229	0x3d3d7019	0.046249483
230	0x3c945c94	0.018110551
231	0xbcfd81c8	-0.030945674
232	0x3d1000c9	0.035157
233	0x3c931487	0.017954124
234	0x3c9385fd	0.018008227
235	0x3d48ed16	0.049054228
236	0x3d9ba79b	0.076003276
237	0x3bcd34c6	0.0062623946
238	0x3d3b6a1a	0.045755483
239	0x3d44606e	0.047943525
240	0x3b83616b	0.004009416
241	0x3d4fdf63	0.050750148
242	0x3d46effa	0.048568703
243	0x2c8c845b	3.9937337e-12
244	0xadbec9f7	-2.169019e-11
245	0xae7f3316	-5.802566e-11
246	0xae39d03b	-4.2249076e-11
247	0x2e3bbf26	4.268865e-11
248	0x2db2d59d	2.033112e-11
249	0xae4158b1	-4.3961893e-11
250	0xae81683a	-5.884755e-11
251	0xaedd189e	-1.0054289e-10
252	0x3c43f855	0.011961062
253	0x3d9cd8d6	0.07658546
254	0x3d51c5ef	0.051214155
255	0x3b2aaa0a	0.0026041293

model.8.bias f4 [8]
0	0x3c7bdbfa	0.015372271
1	0x3b7be60d	0.0038436681
2	0x3d1562c8	0.03647116
3	0x3d924126	0.07141332
4	0xbd38dcb9	-0.045132373
5	0x3d996c08	0.074913085
6	0x3dd433ff	0.1036148
7	0x3be4fc13	0.0069880574

model.12.weight f4 [16, 48]
0	0xbdaf3c09	-0.08556373
1	0xbe02df38	-0.12780464
2	0xbcf10306	-0.029420387
3	0x3dceaa35	0.10091058
4	0x3d1efd81	0.03881598
5	0xbe11e1c9	-0.14246286
6	0x3c2c8954	0.010530788
7	0xbe05a390	-0.13050675
8	0xbd6d68e1	-0.05796135
9	0xbdf38306	-0.11890225
10	0xbd340d0a	-0.043957748
11	0x3d588633	0.052862357
12	0xbd27e282	-0.0409875
13	0x3e872e15	0.26402345
14	0x3e3c8d71	0.1841333
15	0x3dd8398a	0.1055785
16	0x3db39ac1	0.08769751
17	0xbca7cc17	-0.02048306
18	0xbe12fae7	-0.14353524
19	0x3e512ab4	0.20426446
20	0xbe17598e	-0.14780256
21	0x3e30591c	0.17221493
22	0x3d393bc9	0.04522303
23	0xbddc860c	-0.10767755
24	0xbdc2b39f	-0.09506916
25	0xbda40c30	-0.08010137
26	0xbca9c53f	-0.020723937
27	0x3e4db9b7	0.20090376
28	0xbe004e3b	-0.12529843
29	0x3e2da864	0.16958767
30	0xbe14e6e8	-0.14541209
31	0xbdd133f2	-0.10214986
32	0xbdd73f19	-0.10510082
33	0xbe49253c	-0.1964311
34	0xbeaad803	-0.3336793
35	0x3e349297	0.17634045
36	0x3e4d8e6d	0.20073862
37	0xbd2861d3	-0.041108917
38	0xbe6b515b	-0.22980253
39	0x3db8eaf5	0.090291895
40	0xbe8b3490	-0.2718854
41	0x3c521783	0.012822988
42	0x3e84534a	0.25844795
43	0xbe3c2b20	-0.18375826
44	0x3e498362	0.19679025
45	0x3d32bd4e	0.043637566
46	0xbe8b11d7	-0.27162048
47	0xbdf90296	-0.12158696
48	0xbd8bb9ba	-0.06822534
49	0xbd216ed8	-0.03941235
50	0xbd135d71	-0.035977785
51	0xbd889d20	-0.06670594
52	0xbd3bcbc5	-0.045848627
53	0xbd1b22ee	-0.03787511
54	0xaea747fc	-7.607068e-11
55	0x2dcd5634	2.3344084e-11
56	0xaf621134	-2.0560692e-10
57	0xb0827565	-9.49211e-10
58	0x30d8b0e0	1.5766339e-09
59	0x305ccca5	8.032635e-10
60	0xb1fcae10	-7.353954e-09
61	0x34edb911	4.4279344e-07
62	0xb382d0af	-6.091556e-08
63	0xb4eac2db	-4.3727673e-07
64	0x31bd6796	5.5124003e-09
65	0xb1c86fc4	-5.8334724e-09
66	0x3166ba2c	3.3575231e-09
67	0xb1614ec4	-3.2786582e-09
68	0x305f759f	8.1294077e-10
69	0x304db80b	7.4840106e-10
70	0x3036ee39	6.654975e-10
71	0x32274e0d	9.738426e-09
72	0xb5d28b99	-1.5686848e-06
73	0xb4d2af2a	-3.9242997e-07
74	0xb719ef69	-9.175253e-06
75	0xb9313e08	-0.00016903144
76	0xb74103ed	-1.15046105e-05
77	0xb8779b4c	-5.903402e-05
78	0xbdfca3f2	-0.123359576
79	0xbde58ac2	-0.112081066
80	0xbdc4ce35	-0.09609643
81	0xbe0078f6	-0.12546143
82	0xbddbc9b1	-0.10731829
83	0xbdc63943	-0.096788906
84	0xbdfabd5d	-0.122431494
85	0xbdef1bc7	-0.1167522
86	0xbdc4ecab	-0.09615453
87	0xbe00fe9e	-0.12597129
88	0xbddc113d	-0.107454754
89	0xbdcdc078	-0.10046476
90	0xbdae90bb	-0.08523699
91	0xbd99e453	-0.075142525
92	0xbd4f8d6e	-0.050671987
93	0xbdb50add	-0.08839963
94	0xbd95fc96	-0.073235676
95	0xbd5640db	-0.052307945
96	0xbe707dee	-0.23485538
97	0xbe4b4b5c	-0.19852966
98	0xbd8710cd	-0.06595001
99	0xbe348186	-0.17627534
100	0x3e6a7ae9	0.22898449
101	0x3e1e9659	0.1548704
102	0xbe7316d0	-0.23739171
103	0x3e644c96	0.2229484
104	0xbe223d15	-0.15843613
105	0x3be8449e	0.007088258
106	0x3e4d1168	0.20026171
107	0xbd418510	-0.04724604
108	0xbe0b20ad	-0.13586684
109	0xbe3006ff	-0.17190169
110	0x3e1d2cb4	0.15349084
111	0x3e06bd3e	0.13158128
112	0x3dc51e36	0.09624903
113	0x3e37cb35	0.17948611
114	0x3ce620f1	0.02809188
115	0xbd0d66b0	-0.03452176
116	0x3de9ed51	0.11422218
117	0xbd077d21	-0.033078317
118	0x3e3f37cc	0.18673629
119	0x3c18b787	0.0093211
120	0xbdd2e429	-0.10297424
121	0xbc455d97	-0.012046239
122	0xbc8c18af	-0.017101614
123	0xbd3509f1	-0.044198934
124	0x3d8577f0	0.06517017
125	0xbdd97a6d	-0.10619054
126	0xbe90937d	-0.28237525
127	0x3e6c9507	0.23103724
128	0xbe05e6ae	-0.13076279
129	0x3e09a073	0.13440113
130	0xbdd404d9	-0.10352487
131	0x3dc6024e	0.09668408
132	0x3ded6c5a	0.11592932
133	0xbd09c47d	-0.03363465
134	0xbe3bbcf7	-0.18333803
135	0xbe72c626	-0.237084
136	0xbdfd92dd	-0.123815276
137	0x3e855f8b	0.26049456
138	0xbc85b201	-0.01632023
139	0xbd1f6b28	-0.03892055
140	0xbe49f79d	-0.19723363
141	0x3c847c1e	0.016172465
142	0xbe96afd4	-0.2943102
143	0x3dc69762	0.09696843
144	0xbb343032	-0.0027494547
145	0xba3715c8	-0.00069841417
146	0xbd442433	-0.047886085
147	0x3cae5097	0.021278663
148	0xbc13c68f	-0.009019508
149	0xbca020cc	-0.019546889
150	0xbe2fe751	-0.17178084
151	0xbe4788e7	-0.19485818
152	0xbe0dad33	-0.13835602
153	0x3cb5a51f	0.022173462
154	0xbe3929c9	-0.18082346
155	0x3de13d7c	0.10998055
156	0x3e464109	0.19360746
157	0xbdc77d26	-0.09740667
158	0xbe704cde	-0.23466823
159	0xbdde03f9	-0.108406015
160	0x3dc04518	0.093881786
161	0x3dc0b26b	0.094090305
162	0x3e1cb341	0.15302755
163	0x3dcfef27	0.101530366
164	0xbe8084e8	-0.251014
165	0x3d82a66f	0.06379401
166	0xbc8e0ab5	-0.01733909
167	0x3e6541fc	0.22388452
168	0xbcbec4c1	-0.023287179
169	0xbcec9897	-0.028881354
170	0x3d6d764b	0.05797414
171	0xbc87e13a	-0.016586889
172	0xbd839bf9	-0.06426234
173	0xbda95aac	-0.082692474
174	0xbe4d7fed	-0.20068331
175	0xbe9ac981	-0.3023186
176	0x3e4ecc6c	0.20195168
177	0xbe4f7af1	-0.20261742
178	0x3db38ac9	0.087667055
179	0xbd33746b	-0.043812197
180	0x3cb9658e	0.022631433
181	0xbdabd55d	-0.08390305
182	0xbca6bf4c	-0.02035489
183	0x3add1efc	0.0016870196
184	0x3e253387	0.16132937
185	0xbe01adfc	-0.12664026
186	0xbde33cd5	-0.11095587
187	0xbde27b44	-0.11058667
188	0xbdc69993	-0.09697261
189	0x3da45a92	0.080250874
190	0xbda83819	-0.08213825
191	0x3d90618e	0.07049857
192	0xbbec9332	-0.0072196955
193	0x36e5ddcc	6.8505524e-06
194	0xb8a2b25e	-7.7579854e-05
195	0xbd5cf2a1	-0.053942326
196	0x373363e9	1.0692494e-05
197	0xb8c8dbea	-9.577705e-05
198	0xbe67f680	-0.22652626
199	0xbe9827ba	-0.2971781
200	0xbe8fdb1d	-0.28096858
201	0xbd037214	-0.032091215
202	0xbdfecbc6	-0.124412104
203	0x3dd93680	0.10606098
204	0x3e64d8e0	0.22348356
205	0xbe8e7ccf	-0.27829596
206	0x3e445836	0.19174275
207	0x3d0d1aee	0.03444951
208	0xbd8390f4	-0.06424132
209	0x3e32cbc3	0.17460541
210	0xbe4aeb2b	-0.19816272
211	0xbcc6219d	-0.02418595
212	0x3e630855	0.22171147
213	0xbe84ba4b	-0.2592338
214	0xbdcb5e69	-0.09930117
215	0xbe5317f5	-0.20614608
216	0xbd5d2dc5	-0.053998727
217	0x3cf6a436	0.030107599
218	0x3d6fb03e	0.058517687
219	0xbdbf69c6	-0.093463466
220	0xbdbbd553	-0.09171548
221	0xbd4fd75e	-0.0507425
222	0xbd8ae408	-0.06781775
223	0xbe359fed	-0.17736788
224	0xbea51d52	-0.32248932
225	0xbe2c1a3f	-0.16806887
226	0xbdbfae94	-0.0935947
227	0x3d81bb12	0.06334509
228	0x3d36919b	0.044572454
229	0xbd06a00b	-0.032867473
230	0x3d78650e	0.06064325
231	0xbe6c20e5	-0.23059423
232	0xbe83ce9c	-0.25743568
233	0x3d996577	0.07490056
234	0xbe3eefd6	-0.18646178
235	0x3e49effa	0.1972045
236	0x3e0937e5	0.13400228
237	0xbe9a0f79	-0.3008993
238	0x3da79c0c	0.081840605
239	0xbd4c9822	-0.049949773
240	0x3b32fb54	0.0027310448
241	0x3ba81684	0.005129637
242	0x3afe17dc	0.0019385773
243	0x3be52a4e	0.0069935685
244	0x3beb3a3a	0.007178572
245	0x3b77487f	0.003773242
246	0x2e3088e0	4.0139336e-11
247	0xb0848453	-9.641873e-10
248	0xb0f64bfe	-1.7920454e-09
249	0x30f274c7	1.7641008e-09
250	0x2fee7b99	4.337977e-10
251	0x32f20bba	2.817784e-08
252	0xbdd2e224	-0.10297039
253	0xbdd3edae	-0.10348068
254	0xbd910ab2	-0.07082118
255	0xbdc7b7c2	-0.09751846

model.12.bias f4 [16]
0	0xbcf39775	-0.029735306
1	0xbd121aad	-0.03566997
2	0xbd4958dd	-0.049157012
3	0x3d3cf485	0.04613163
4	0xbd0a5332	-0.033770747
5	0xbd69ed52	-0.057111092
6	0xbd8929c8	-0.06697422
7	0x3d980cf6	0.07424347
8	0xbd55c9ea	-0.052194513
9	0x3d59ec01	0.053203586
10	0xbd74c5e7	-0.059759047
11	0x3d92b6a0	0.07163739
12	0x3d609516	0.05482968
13	0xbcbd8a92	-0.023137365
14	0x3da90f60	0.08254886
15	0x3d524254	0.051332787

model.15.weight f4 [4, 16]
0	0x3f0a6de5	0.54073936
1	0x3ecc150a	0.39859802
2	0x3f2fc1b8	0.68654966
3	0xbc8b7e8c	-0.017028116
4	0xbe5bc889	-0.21463217
5	0x3ef54535	0.47904363
6	0x3d3a8e77	0.04554602
7	0x3e8ff4ca	0.28116447
8	0x3f1073df	0.56426805
9	0xbe346077	-0.17614923
10	0x3f196822	0.5992452
11	0xbf0985ea	-0.5371996
12	0xbed013d4	-0.40640128
13	0xbd830303	-0.06397059
14	0xbe0c3229	-0.1369101
15	0xbecbfd54	-0.39841712
16	0x3e8e5c09	0.27804592
17	0x3f0c3a96	0.54776895
18	0x3eb03fb5	0.34423605
19	0x3e1af58d	0.15132733
20	0x3f0aab35	0.5416749
21	0xbe08698a	-0.1332151
22	0x3f355793	0.7083675
23	0xbf02939b	-0.5100648
24	0x3f117ff9	0.56835896
25	0xbe3373cb	-0.1752464
26	0x3e881cb4	0.265844
27	0xbe86e2c5	-0.26344886
28	0xbe73da5f	-0.2381377
29	0x3f4220f0	0.7583151
30	0xbf480b12	-0.7814189
31	0xbeec1731	-0.46111444
32	0x3e7c40dc	0.24634117
33	0xbe953c1e	-0.29147428
34	0x3c9628d2	0.018330012
35	0x3f078ab6	0.5294603
36	0xbe5729cc	-0.21012038
37	0x3ec82437	0.3909013
38	0x3e5ced21	0.21574832
39	0xbe227595	-0.15865166
40	0xbe492aa1	-0.19645168
41	0xbe1fbbd4	-0.15598994
42	0x3e919683	0.28435144
43	0xbebf7b7e	-0.37398905
44	0xbee9b950	-0.45649195
45	0x3cb964b2	0.022631023
46	0x3bb3b467	0.005484152
47	0x3e27733a	0.16352549
48	0x3e8eefe7	0.27917406
49	0xbdaa3b06	-0.08312039
50	0x3ec4febc	0.38475597
51	0x3e8f2772	0.27959782
52	0xbeb821a5	-0.3596317
53	0xbf0625d5	-0.5240148
54	0xbe0f26de	-0.1397967
55	0x3e275bcc	0.16343611
56	0x3dd0d4ac	0.10196814
57	0x3ef916f5	0.48650327
58	0xbee7d183	-0.45277032
59	0x3e78257e	0.24233052
60	0xbe55541b	-0.20832865
61	0xbc883df3	-0.016631102
62	0xbe8f43ae	-0.27981323
63	0x3e92c91d	0.28669062

model.15.bias f4 [4]
0	0xbe3ab1d5	-0.182319
1	0xbeb97a42	-0.36226088
2	0xbd0635cf	-0.03276616
3	0x3ddd7ba1	0.10814596

exp_avg f4 [1, 3, 1, 1]
0	0xb5850099	-9.909446e-07
1	0x36bdbf88	5.654936e-06
2	0x3628067e	2.503773e-06

exp_avg_sq f4 [1, 3, 1, 1]
0	0x32fffd10	2.9800987e-08
1	0x32fe4dd2	2.960488e-08
2	0x32e84d7d	2.7043592e-08

exp_avg f4 [128, 1, 3, 3]
0	0x337bb7df	5.860772e-08
1	0xb335028e	-4.214467e-08
2	0xb2e2058a	-2.6312382e-08
3	0xb279ef33	-1.4548095e-08
4	0x33865176	6.254679e-08
5	0xb36caff3	-5.5108057e-08
6	0x333cf75e	4.399714e-08
7	0x3358bc71	5.0462805e-08
8	0xb22a2a75	-9.904956e-09
9	0xaf22b299	-1.4797265e-10
10	0xb340787f	-4.4813074e-08
11	0xb2eb7e97	-2.7415167e-08
12	0xb29ed684	-1.8491171e-08
13	0xafc3bca9	-3.5604344e-10
14	0x33460f6e	4.61145e-08
15	0x32070139	7.858312e-09
16	0x3204c43e	7.7280315e-09
17	0xb33e0bbd	-4.4248498e-08
18	0xa6998e6a	-1.0655109e-15
19	0xa741b38b	-2.688146e-15
20	0x278153ac	3.589541e-15
21	0x26792fd3	8.6454043e-16
22	0xa398c9ba	-1.6565308e-17
23	0xa5f7d4a2	-4.2991755e-16
24	0x259439e9	2.571315e-16
25	0x2773a08b	3.3810055e-15
26	0x27fe1b3f	7.0528702e-15
27	0xaa9d31d3	-2.7923375e-13
28	0xa92e2b7a	-3.867347e-14
29	0xaa46abee	-1.7645583e-13
30	0x2992e7a3	6.523885e-14
31	0xaaa01d7c	-2.8442168e-13
32	0xa8f6e65c	-2.7411389e-14
33	0xaa43da6a	-1.7395257e-13
34	0xaa05029b	-1.1813677e-13
35	0x2a59f5be	1.935873e-13
36	0xaba06973	-1.1397952e-12
37	0x2e0c7462	3.1935683e-11
38	0x2adf3b54	3.9653925e-13
39	0xaa90bae6	-2.5709225e-13
40	0x2c05b11f	1.8998759e-12
41	0xa99b1e63	-6.888654e-14
42	0xaa4a9e90	-1.7996216e-13
43	0x2aa162a8	2.8667802e-13
44	0xaa02801e	-1.1590769e-13
45	0xa96ed681	-5.303267e-14
46	0xa90e5a17	-3.1608474e-14
47	0xa969c889	-5.191033e-14
48	0x293dbe40	4.2131446e-14
49	0xa98a6a29	-6.146847e-14
50	0x293b9230	4.164914e-14
51	0x296c317d	5.244545e-14
52	0x297ef45e	5.6611284e-14
53	0xa985a44c	-5.9348875e-14
54	0xb2278d02	-9.752741e-09
55	0xb30a97dc	-3.2268744e-08
56	0xb355e355	-4.9799684e-08
57	0xb220848c	-9.343363e-09
58	0xb33e20f0	-4.426778e-08
59	0xb36d7430	-5.5286534e-08
60	0xb305d083	-3.1156116e-08
61	0xb34f03de	-4.819946e-08
62	0xb3543591	-4.9408815e-08
63	0x32abc9fb	1.999887e-08
64	0x32c2bbc0	2.2669951e-08
65	0x32f2154d	2.8182194e-08
66	0xb148ba6e	-2.9209803e-09
67	0xb1932d99	-4.283447e-09
68	0x320fa575	8.361316e-09
69	0x32b43cc4	2.0982391e-08
70	0x3316d97f	3.5122408e-08
71	0x3314622c	3.4548222e-08
72	0x3343a7cc	4.5554586e-08
73	0x33293ae9	3.9401957e-08
74	0x332914fb	3.936746e-08
75	0x3319f968	3.5849922e-08
76	0xb329fa23	-3.9575877e-08
77	0xb187ce9f	-3.952507e-09
78	0x333b7cd5	4.3652864e-08
79	0x31c115c3	5.6195133e-09
80	0x32d6d658	2.5010351e-08
81	0x32d4bc00	2.476554e-08
82	0x329b9bcb	1.8115221e-08
83	0x32b848eb	2.1453578e-08
84	0x31db97e8	6.3910086e-09
85	0x3283ee35	1.5358731e-08
86	0x32833c7d	1.5277914e-08
87	0x32191dd0	8.912551e-09
88	0x333b2818	4.3575795e-08
89	0xb1ffcce3	-7.4447697e-09
90	0xb185b262	-3.8910892e-09
91	0xb11c82e9	-2.2775402e-09
92	0xb1184bd0	-2.2162006e-09
93	0xb19d3b7d	-4.5760644e-09
94	0xb18ddf5e	-4.129034e-09
95	0xb1977e34	-4.409026e-09
96	0xb1a06523	-4.668111e-09
97	0xb18b92f4	-4.062139e-09
98	0xb18e5305	-4.142182e-09
99	0x324ead06	1.2030119e-08
100	0x332f5532	4.0822847e-08
101	0x329683aa	1.7522172e-08
102	0xb3283734	-3.9165755e-08
103	0x32dda0c4	2.5800894e-08
104	0x326c338a	1.3748727e-08
105	0x32d6c9c5	2.5004633e-08
106	0x325166ab	1.2188745e-08
107	0x32771ec0	1.4384284e-08
108	0xb1a70244	-4.8605973e-09
109	0xb22914a9	-9.841792e-09
110	0xb262f08c	-1.3209625e-08
111	0xb2416574	-1.1257146e-08
112	0xb2a32527	-1.8992592e-08
113	0xb276548b	-1.4338307e-08
114	0xb1f46316	-7.1125994e-09
115	0xb26c5e71	-1.37584815e-08
116	0xb20c3fc4	-8.163571e-09
117	0x3223da63	9.537504e-09
118	0x3212045f	8.499312e-09
119	0x321fd702	9.303905e-09
120	0x3211f137	8.494957e-09
121	0x333b9b81	4.368076e-08
122	0x320c9b8f	8.1844425e-09
123	0x3393fa49	6.8907475e-08
124	0xb20d4d89	-8.22491e-09
125	0x31f98d0f	7.2628903e-09
126	0xa79f57ad	-4.4226424e-15
127	0x28169db7	8.360872e-15
128	0x280bd7cc	7.7628435e-15
129	0x27f3f54d	6.7712004e-15
130	0xa6cd58fa	-1.424885e-15
131	0x27f59775	6.816537e-15
132	0x27a2217e	4.5000345e-15
133	0xa68ed725	-9.911544e-16
134	0x26a19c22	1.1213939e-15
135	0x3390063f	6.706659e-08
136	0xb344f47f	-4.5857174e-08
137	0xb440b7f8	-1.7948321e-07
138	0x33d9fb01	1.0150507e-07
139	0x33b5b58c	8.4614925e-08
140	0xb3c522c9	-9.179855e-08
141	0xb387fc5b	-6.3323306e-08
142	0xb42cc443	-1.6090148e-07
143	0xb3be1900	-8.852112e-08
144	0xa89fbf6e	-1.7735565e-14
145	0x279b0c76	4.3034652e-15
146	0x283fe0f6	1.06514105e-14
147	0x27772311	3.4297145e-15
148	0xa779fc6c	-3.469253e-15
149	0x274254bb	2.696884e-15
150	0xa8058f4d	-7.4140565e-15
151	0x27ab2a11	4.7507643e-15
152	0xa7ad7143	-4.8139944e-15
153	0x332234d5	3.7766615e-08
154	0x331d9137	3.6686483e-08
155	0x32831d62	1.5263769e-08
156	0x3313726d	3.4330174e-08
157	0x3353f414	4.9349254e-08
158	0x3315506c	3.476491e-08
159	0x32ff8d33	2.9750117e-08
160	0x32d8c45d	2.5235005e-08
161	0x3296fc66	1.7577076e-08
162	0x25c461e8	3.4066924e-16
163	0xa70ab27e	-1.9248108e-15
164	0xa606c657	-4.675939e-16
165	0xa7564274	-2.973449e-15
166	0x26c86001	1.390381e-15
167	0xa70b8ee3	-1.9367584e-15
168	0xa776268c	-3.4160254e-15
169	0xa7bfe05d	-5.3256405e-15
170	0xa5a03022	-2.7788192e-16
171	0x28a4aeeb	1.8283516e-14
172	0x2791e797	4.0496675e-15
173	0xa729630b	-2.3507153e-15
174	0xa8bb7ec1	-2.0816141e-14
175	0xa9052ce3	-2.9570865e-14
176	0x27cae7f4	5.6317747e-15
177	0x26505c3f	7.2289513e-16
178	0xa75f8ff8	-3.1025512e-15
179	0x2732a81b	2.4793592e-15
180	0x32ff3d12	2.9713679e-08
181	0xb1ff37af	-7.4278073e-09
182	0xb1303f7e	-2.5647462e-09
183	0x33205ba7	3.733626e-08
184	0x3271435b	1.4043361e-08
185	0x31bbef36	5.4696114e-09
186	0xb09e02e6	-1.1496837e-09
187	0x322b5549	9.972902e-09
188	0x32f151f8	2.8093368e-08
189	0xb38e31ef	-6.621473e-08
190	0xb396be02	-7.0194815e-08
191	0xb38749f4	-6.2998794e-08
192	0xb39083d7	-6.729504e-08
193	0xb38ad15c	-6.464208e-08
194	0xb39ab7ac	-7.2045935e-08
195	0xb390cc26	-6.742657e-08
196	0xb395e1f5	-6.9794545e-08
197	0xb383aa61	-6.1311546e-08
198	0x325fbd81	1.3023397e-08
199	0x3328fe3a	3.9346766e-08
200	0x33283def	3.9171876e-08
201	0x33351c05	4.216783e-08
202	0x333b0132	4.3540417e-08
203	0x33488e5e	4.669561e-08
204	0x333d15c8	4.40248e-08
205	0x333d784a	4.4114394e-08
206	0x3316c153	3.5100424e-08
207	0xb0d0e455	-1.5198888e-09
208	0xb29261ed	-1.7041168e-08
209	0xb24029e3	-1.1185395e-08
210	0x32457b5c	1.1494958e-08
211	0xb3e79737	-1.07842816e-07
212	0x32f3a5da	2.8364344e-08
213	0xb333f58d	-4.1900012e-08
214	0x314ddc32	2.9956593e-09
215	0x3375b2ff	5.7206304e-08
216	0xac1455e0	-2.1079735e-12
217	0xabc052b9	-1.3665381e-12
218	0xabf5ec7a	-1.7473932e-12
219	0xac2dfbff	-2.4724665e-12
220	0x2b1f338d	5.655969e-13
221	0xaad8232d	-3.8393716e-13
222	0xac5731c8	-3.0580972e-12
223	0xab7b2cd7	-8.923534e-13
224	0x2b477f4e	7.0875673e-13
225	0x330b43c8	3.2425106e-08
226	0x331110ee	3.377584e-08
227	0x32fa5d6e	2.9146317e-08
228	0x328f3375	1.6670791e-08
229	0x3296a250	1.753611e-08
230	0x32f15a8f	2.8097274e-08
231	0x32e8eed4	2.7116961e-08
232	0x3307788e	3.154178e-08
233	0x330d0ed6	3.2842614e-08
234	0x32cac53c	2.3605587e-08
235	0x332f8f69	4.0875793e-08
236	0xb113749f	-2.1457607e-09
237	0xb336a8e6	-4.252879e-08
238	0xb36e0978	-5.5422305e-08
239	0x32cb3d95	2.3660315e-08
240	0x3359f25c	5.0744674e-08
241	0x32e12b06	2.6213012e-08
242	0x30bb18f9	1.3613138e-09
243	0xb2feb080	-2.9649755e-08
244	0xb0c96db4	-1.4655854e-09
245	0x3357771b	5.0166914e-08
246	0x331307f3	3.4233334e-08
247	0x329a4160	1.7957689e-08
248	0xb088fb50	-9.96673e-10
249	0x32cf4c3e	2.4132643e-08
250	0x33021f86	3.0296654e-08
251	0x32eddf0b	2.769186e-08
252	0xb12234ae	-2.3604048e-09
253	0xb335d91a	-4.23398e-08
254	0x32c94c6e	2.3434236e-08
255	0xb2bf0b57	-2.2240483e-08

exp_avg_sq f4 [128, 1, 3, 3]
0	0x2d652211	1.3024707e-11
1	0x2d8abfd8	1.577398e-11
2	0x2d9fa136	1.81478e-11
3	0x2d5280bb	1.1965702e-11
4	0x2d5fc429	1.2719639e-11
5	0x2d931fb6	1.6726048e-11
6	0x2d39cbb9	1.0561268e-11
7	0x2d450667	1.1199575e-11
8	0x2d628afe	1.2877475e-11
9	0x2d97c782	1.7255312e-11
10	0x2d693ab5	1.3257552e-11
11	0x2d8d8303	1.6088025e-11
12	0x2d5ba4a9	1.2485271e-11
13	0x2d7eacb8	1.447658e-11
14	0x2dc551b2	2.2432587e-11
15	0x2d1b1ab6	8.816661e-12
16	0x2d510d5b	1.188324e-11
17	0x2d854bfd	1.5154095e-11
18	0x28f3fecc	2.708892e-14
19	0x280e6257	7.9039075e-15
20	0x2827153c	9.274967e-15
21	0x26e6be74	1.6011078e-15
22	0x24216ebc	3.5005106e-17
23	0x2854d7e2	1.1815176e-14
24	0x29780cf7	5.5078307e-14
25	0x291eba27	3.524451e-14
26	0x296b114c	5.2195485e-14
27	0x2957115c	4.7754647e-14
28	0x269d34e5	1.09084e-15
29	0x28c77c58	2.2147364e-14
30	0x282a555b	9.455404e-15
31	0x29a5361b	7.336858e-14
32	0x28683040	1.288905e-14
33	0x28bfd217	2.1296372e-14
34	0x289d92c9	1.749416e-14
35	0x253219ad	1.5447738e-16
36	0x2c36cd20	2.5977623e-12
37	0x2c54f9c7	3.0265666e-12
38	0x2c0f2385	2.034124e-12
39	0x2c2d8957	2.4661018e-12
40	0x2c1bc764	2.2137509e-12
41	0x2bfb89c4	1.787286e-12
42	0x2be5c055	1.6324812e-12
43	0x2b93b1a0	1.0494279e-12
44	0x2b472976	7.075654e-13
45	0x29422a11	4.311314e-14
46	0x287fdb16	1.420285e-14
47	0x291d9899	3.499336e-14
48	0x26a61de9	1.1526671e-15
49	0x257ab65f	2.1745833e-16
50	0x26a1164c	1.1177663e-15
51	0x273adc70	2.5932185e-15
52	0x27189b3c	2.117839e-15
53	0x298e391e	6.315975e-14
54	0x2caec005	4.966696e-12
55	0x2c6d9fb4	3.3768379e-12
56	0x2c356833	2.577949e-12
57	0x2caec03a	4.966719e-12
58	0x2c3cbd63	2.6821538e-12
59	0x2c26d8bd	2.3710333e-12
60	0x2c78aac9	3.5337725e-12
61	0x2c381801	2.6161298e-12
62	0x2c379973	2.6091046e-12
63	0x2d3a4e53	1.0590267e-11
64	0x2d54b783	1.2091553e-11
65	0x2d3548a3	1.0304787e-11
66	0x2d397973	1.0543e-11
67	0x2d45c753	1.1242412e-11
68	0x2d149091	8.444926e-12
69	0x2d1a3105	8.764771e-12
70	0x2d166057	8.547905e-12
71	0x2ce09ad6	6.383653e-12
72	0x2d670f85	1.3134276e-11
73	0x2d47b083	1.1351034e-11
74	0x2d3efd80	1.0856538e-11
75	0x2d4cc100	1.1638912e-11
76	0x2d560370	1.2165255e-11
77	0x2d521f86	1.1944118e-11
78	0x2d44b9d5	1.1182573e-11
79	0x2d4bd878	1.158728e-11
80	0x2d5349af	1.2010322e-11
81	0x2d2ac03a	9.706064e-12
82	0x2c972f53	4.296932e-12
83	0x2c4617a9	2.8150626e-12
84	0x2cdedb2a	6.3339516e-12
85	0x2d0fe5c6	8.179629e-12
86	0x2ce493da	6.4965646e-12
87	0x2cd14b7a	5.948517e-12
88	0x2d4b9e2f	1.1574338e-11
89	0x2d321820	1.0123485e-11
90	0x2a7ea6be	2.2617582e-13
91	0x2b4b954d	7.2327284e-13
92	0x2b4f7a47	7.3710867e-13
93	0x29bf642c	8.499481e-14
94	0x2a2b0ff3	1.5193384e-13
95	0x2a1ab65d	1.3741218e-13
96	0x29cd737f	9.123864e-14
97	0x2a480e62	1.7768558e-13
98	0x2a4e4541	1.8320503e-13
99	0x2d4daee9	1.1691739e-11
100	0x2d604171	1.2747457e-11
101	0x2d383634	1.0471225e-11
102	0x2d519ef1	1.1915567e-11
103	0x2d2be2ab	9.770555e-12
104	0x2d162334	8.5343295e-12
105	0x2d34059f	1.02330635e-11
106	0x2d255420	9.397844e-12
107	0x2d116334	8.264323e-12
108	0x2c6d8ce7	3.3757942e-12
109	0x2c0736e3	1.9215122e-12
110	0x2b8b928f	9.917222e-13
111	0x2bf69398	1.7520317e-12
112	0x2b269daf	5.9193877e-13
113	0x2b6c217b	8.3890506e-13
114	0x2c2f3409	2.489788e-12
115	0x2ba2b7a1	1.156176e-12
116	0x2c080da7	1.933434e-12
117	0x2c5b7c61	3.1190816e-12
118	0x2c7d3305	3.5981784e-12
119	0x2c6b34a9	3.342474e-12
120	0x2cf4aa69	6.9538164e-12
121	0x2d374bdc	1.041919e-11
122	0x2cced496	5.878474e-12
123	0x2d646dc8	1.2984676e-11
124	0x2d155417	8.488341e-12
125	0x2caa59fe	4.8416817e-12
126	0x299c7384	6.9478304e-14
127	0x27105ecf	2.003541e-15
128	0x26f819b6	1.7215426e-15
129	0x27ef084a	6.6344813e-15
130	0x290654f4	2.9827662e-14
131	0x26ed2355	1.6454755e-15
132	0x2698829a	1.0582518e-15
133	0x2827b8ea	9.310459e-15
134	0x29c12c97	8.578657e-14
135	0x2e1597f8	3.4013653e-11
136	0x2deac363	2.668949e-11
137	0x2dafe707	1.9997793e-11
138	0x2e193cba	3.484211e-11
139	0x2e0403b9	3.001663e-11
140	0x2dbf8483	2.1773033e-11
141	0x2e0af58d	3.159566e-11
142	0x2dd8a5f1	2.463005e-11
143	0x2dad0a28	1.9672333e-11
144	0x2a224d9e	1.4415419e-13
145	0x2959fa6c	4.8400886e-14
146	0x2a06eaaf	1.1983013e-13
147	0x28e74324	2.567527e-14
148	0x291cd361	3.48223e-14
149	0x28e84be1	2.5790081e-14
150	0x29108bd1	3.2095695e-14
151	0x289988e0	1.7045772e-14
152	0x291e776f	3.518664e-14
153	0x2c9dbff5	4.48352e-12
154	0x2cce4dd0	5.863511e-12
155	0x2d1d902a	8.956428e-12
156	0x2cd65e83	6.0927387e-12
157	0x2d31eeef	1.0114339e-11
158	0x2d2860a7	9.5711555e-12
159	0x2cf19aa4	6.8668005e-12
160	0x2d15ea00	8.521628e-12
161	0x2d2fa9b4	9.98528e-12
162	0x28322309	9.888582e-15
163	0x2943691a	4.338986e-14
164	0x27188416	2.1165841e-15
165	0x286392c5	1.2632857e-14
166	0x27aab423	4.7379783e-15
167	0x283a1360	1.0329275e-14
168	0x29128c83	3.2540387e-14
169	0x28e413d4	2.5321684e-14
170	0x2572034d	2.0991272e-16
171	0x2a287926	1.4963429e-13
172	0x2a7a4cb0	2.2231067e-13
173	0x278dbb53	3.933846e-15
174	0x2aa3e82a	2.9115713e-13
175	0x2a991d65	2.7198656e-13
176	0x2947acba	4.4336693e-14
177	0x2a0940aa	1.2190479e-13
178	0x29f2e35d	1.07864e-13
179	0x2810c5d7	8.0365055e-15
180	0x2d5c69bc	1.252903e-11
181	0x2d5f352a	1.2687887e-11
182	0x2d4fc17c	1.180955e-11
183	0x2d565463	1.2183229e-11
184	0x2d266137	9.4575936e-12
185	0x2d2c905e	9.809124e-12
186	0x2d37c476	1.0445969e-11
187	0x2d1c5b37	8.887827e-12
188	0x2d29e81e	9.658078e-12
189	0x2a348a11	1.6035113e-13
190	0x2a2873ac	1.4961529e-13
191	0x2a76e1eb	2.192757e-13
192	0x2a3a1d92	1.6530378e-13
193	0x2a4c0059	1.811896e-13
194	0x29fd33a3	1.12444146e-13
195	0x2a56f739	1.9092791e-13
196	0x2a21fed6	1.4388087e-13
197	0x2a651a84	2.0348485e-13
198	0x2d31bb19	1.0102829e-11
199	0x2d0ee81e	8.123306e-12
200	0x2d0636c0	7.629175e-12
201	0x2d09d79a	7.8354215e-12
202	0x2ced93e7	6.7523656e-12
203	0x2ce1cef2	6.41786e-12
204	0x2cf51f8c	6.9668212e-12
205	0x2cf6d21a	7.0150665e-12
206	0x2d02945f	7.4225895e-12
207	0x2d72be17	1.3798316e-11
208	0x2d6ce52e	1.3465935e-11
209	0x2d706f2f	1.3667108e-11
210	0x2d8ddfa9	1.612917e-11
211	0x2da20571	1.8419684e-11
212	0x2d9f883c	1.8136707e-11
213	0x2d948079	1.6882705e-11
214	0x2d9e1411	1.7971432e-11
215	0x2dbe2538	2.1617028e-11
216	0x2683a774	9.135339e-16
217	0x25965641	2.60793e-16
218	0x29329541	3.9653397e-14
219	0x29cac8fd	9.005468e-14
220	0x28811760	1.4332014e-14
221	0x2436173b	3.9484636e-17
222	0x265ce9f6	7.664491e-16
223	0x28dd8f0a	2.4597962e-14
224	0x22eab0cd	6.3613022e-18
225	0x2cd2c8f2	5.9908684e-12
226	0x2cab04fe	4.8606666e-12
227	0x2cb0f61c	5.0295445e-12
228	0x2d09adf1	7.826171e-12
229	0x2cfde116	7.215682e-12
230	0x2cd3c778	6.019126e-12
231	0x2d0dcdf5	8.060654e-12
232	0x2d3076a3	1.0030784e-11
233	0x2d20c197	9.137933e-12
234	0x2d574b4d	1.2238055e-11
235	0x2d5094a2	1.1856434e-11
236	0x2d4cdd96	1.1645259e-11
237	0x2d75fe03	1.39830396e-11
238	0x2d5ca2e7	1.2541724e-11
239	0x2d25d790	9.427029e-12
240	0x2d780c8f	1.40999564e-11
241	0x2d28381a	9.562151e-12
242	0x2d114373	8.2572725e-12
243	0x2d5a8f3f	1.2423672e-11
244	0x2d6b6689	1.3380971e-11
245	0x2d6a1251	1.3305427e-11
246	0x2d04bd6f	7.545394e-12
247	0x2d32f764	1.017306e-11
248	0x2d287030	9.574605e-12
249	0x2d091332	7.791811e-12
250	0x2d04a3d9	7.539713e-12
251	0x2cfa3f7f	7.112477e-12
252	0x2d69f643	1.3299198e-11
253	0x2d628ef7	1.2878357e-11
254	0x2d81d79f	1.4761357e-11
255	0x2d613439	1.2801365e-11
