HW6/lightning_logs/version_2/checkpoints/epoch=5-step=366.ckpt (torch, 513472 bytes, 33 tensors)

model.0.weight f4 [1, 3, 1, 1]
0.14028223 -0.46181738 -0.07042741
00000000: 25a6 0f3e 5473 ecbe 3f3c 90bd

model.2.weight f4 [128, 1, 3, 3]
0.03380825 0.008266728 0.027904587 0.011472069 0.031744782 0.007919329 0.051668238 -0.00044829643
0.014723154 0.015731448 0.0014955901 -0.0024508417 0.011548596 -0.0031409124 0.00673377 0.00016342
-0.003891476 0.003402801 -3.3237715e-11 9.221258e-10 4.61937e-10 1.0566937e-09 1.1062305e-10 -4.057959e-10
-4.2324028e-10 5.1484036e-11 -1.0597717e-09 -1.23251604e-08 -1.7869788e-10 -3.4825731e-09 -3.2486547e-09 6.8712533e-09
2.6804281e-08 3.4594752e-09 5.063091e-09 -3.641132e-09 0.025796559 0.03351519 0.02871019 0.030516341
0.03565534 0.035337046 0.015636614 0.012422842 0.029069452 0.050936427 0.002421664 0.05373583
0.05171902 0.048772465 0.058217302 0.04770149 0.0192 0.005500493 0.014173555 0.03206916
-0.026103204 -0.023714539 0.040553425 0.05444178 0.07248591 0.05783334 0.06588631 1.8321005e-09
1.358292e-09 3.5453604e-10 -1.1641208e-09 -1.339975e-09 1.7531047e-10 -6.3745736e-10 1.2846515e-09 -6.6979905e-10
0.0938551 -0.019357271 -0.06480658 0.11527165 -0.028858509 -0.053132154 0.100107856 0.11800734
0.11534487 -9.755178e-09 -1.601558e-08 1.3513687e-08 8.407327e-09 1.2034773e-08 6.500998e-09 1.6130464e-08
6.3330727e-09 -2.1136008e-08 -0.03351806 -0.015619493 -0.014330557 0.01445303 -0.036941238 -0.029265223
0.04433487 -0.0019136114 0.025276214 -1.4903852e-08 -3.2639085e-09 2.241772e-09 -1.6010998e-09 -4.329812e-09
-7.7533713e-10 -6.095583e-09 4.956218e-09 -2.1261113e-09 0.04909456 0.058522277 0.010006566 -0.014956249
0.042027548 0.023099516 -0.0023406565 -0.0066305865 0.0042104437 0.0034565069 0.013129331 0.01362124
0.0061274813 0.014486656 0.009115998 0.020298341 0.019887837 0.0242288 1.0232169e-08 -2.4681108e-09
1.0549119e-09 1.0940302e-07 -2.1168146e-08 -5.460501e-09 8.4672265e-06 -1.707408e-07 2.928988e-07 0.051704373
0.052234843 0.026295705 0.04404097 0.052200258 0.036227133 0.048898216 0.034912497 0.049325913
-7.4407336e-10 1.4374993e-10 -1.4302056e-09 8.0536283e-10 1.102723e-09 2.2411976e-10 7.989889e-10 6.7019e-10
-4.1247203e-10 0.042546354 0.020267019 0.04082888 0.03518591 0.033704825 0.04015273 0.01745068
0.03768459 0.03448998 1.1371561e-09 2.0663025e-09 -2.1485318e-09 -3.51974e-09 -9.2297175e-10 -4.5889634e-10
1.0568164e-09 -2.2770577e-09 -8.4448454e-10 0.0397935 0.015891569 0.018493252 0.032083016 0.01655631
0.010686962 0.007575464 0.027535826 -0.021648632 0.008951112 -0.006328 0.016762542 0.0045747515
0.007165256 0.050638124 0.0023227984 0.04679932 -0.0101227565 -1.9992306e-08 4.162543e-09 1.3658182e-08
1.4420651e-08 1.862472e-08 3.3387714e-08 -1.0547589e-08 6.302172e-09 -1.183423e-09 0.025664266 0.011549416
0.020352509 0.028271588 0.007455298 0.010960607 0.024806445 0.01566131 0.028780384 -2.7920914e-09
6.3911263e-09 5.215808e-09 6.5135555e-09 -1.7563991e-09 1.0584111e-09 -2.922454e-09 -4.947592e-09 6.387616e-09
-3.1206792e-08 2.0073257e-08 -1.4885299e-08 2.6736007e-08 -5.448081e-09 2.473697e-08 2.5405438e-08 -1.0044444e-09
-1.3456415e-08 0.03991546 0.0351758 0.03590837 0.038761366 0.018112857 0.034738645 0.03347051
0.008583434 0.013034195 -0.018777166 0.00069013936 0.055827007 0.019779531 0.019599441 0.008703907
-0.032115918 0.040917568 0.052310143 7.977526e-09 1.2451501e-08 6.8627513e-09 5.6245506e-09 1.3277436e-08
7.721549e-09 -8.340317e-08 1.9492264e-08 -3.6699523e-09 -0.0010784656 0.00028285562 0.0033923232 0.00065003376
00000000: 857a 0a3d 2c71 073c 2998 e43c 58f5 3b3c
00000010: d106 023d 13c0 013c 13a2 533d 5409 ebb9
00000020: 6239 713c 3ddf 803c ad07 c43a 4d9e 20bb
00000030: 5336 3d3c c4d7 4dbb f5a6 dc3b b95b 2b39
00000040: 2208 7fbb 8701 5f3b 572e 12ae d678 7d30
00000050: daf3 fd2f 1b3b 9130 3e43 f32e b216 dfaf
00000060: c6ad e8af df6d 622e 67a7 91b0 a1be 53b2
00000070: fb7a 44af 1352 6fb1 f03e 5fb1 2f18 ec31
00000080: 3d3f e632 bbbb 6d31 6bf7 ad31 7937 7ab1
00000090: 4e53 d33c 3947 093d a231 eb3c 68fd f93c
000000a0: 550b 123d 94bd 103d 5b18 803c 2d89 4b3c
000000b0: 0f23 ee3c b7a2 503d c8b4 1e3b 1a1a 5c3d
000000c0: 53d7 533d a3c5 473d 4475 6e3d a362 433d
000000d0: 5249 9d3c 7b3d b43b 3338 683c f45a 033d
000000e0: 63d6 d5bc fe44 c2bc 591b 263d 58fe 5e3d
000000f0: 7e73 943d a7e2 6c3d 67ef 863d 4ecd fb30
00000100: a7ae ba30 83e8 c22f dcfe 9fb0 2e2a b8b0
00000110: 83c1 402f 1339 2fb0 a88f b030 eb1c 38b0
00000120: 1a37 c03d 2493 9ebc 50b9 84bd 8b13 ec3d
00000130: ae68 ecbc 1aa1 59bd 5905 cd3d d5ad f13d
00000140: ee39 ec3d ba97 27b2 a292 89b2 d329 6832
00000150: d16f 1032 7ec1 4e32 625f df31 448f 8a32
00000160: 4c9a d931 938e b5b2 3c4a 09bd e7e8 7fbc
00000170: b6ca 6abc 67cc 6c3c b24f 17bd 9fbd efbc
00000180: 7b98 353d 25d2 faba 1010 cf3c eb05 80b2
00000190: 494b 60b1 ac0d 1a31 b10d dcb0 6ec5 94b1
000001a0: 801f 55b0 5171 d1b1 5b4b aa31 f21a 12b1
000001b0: 6117 493d 0eb5 6f3d 94f2 233c 0e0b 75bc
000001c0: 1425 2c3d 323b bd3c b365 19bb 6445 d9bb
000001d0: c3f7 893b 9086 623b 681c 573c 9f2b 5f3c
000001e0: 0ac9 c83b 7059 6d3c 445b 153c b548 a63c
000001f0: d1eb a23c 7a7b c63c 8ec9 2f32 779b 29b1
00000200: 6afc 9030 f2f0 ea33 3fd5 b5b2 139f bbb1
00000210: 760e 0e37 e054 37b4 b43f 9d34 f7c7 533d
00000220: 34f4 553d 176a d73c 4e64 343d f0cf 553d
00000230: e762 143d 7f49 483d 6800 0f3d f809 4a3d
00000240: 8287 4cb0 020e 1e2f e390 c4b0 5f60 5d30
00000250: 9e8e 9730 1b6c 762f d89f 5b30 6e38 3830
00000260: 47c2 e2af 1645 2e3d 0507 a63c 2f3c 273d
00000270: 1a1f 103d 120e 0a3d 3077 243d baf4 8e3c
00000280: 285b 1a3d 5e45 0d3d 204a 9c30 c7fe 0d31
00000290: 5fa5 13b1 ecdf 71b1 5db4 7db0 eb47 fcaf
000002a0: 6c3f 9130 6c7a 1cb1 5121 68b0 82fe 223d
000002b0: 092f 823c 297f 973c 7b69 033d 19a1 873c
000002c0: 5e18 2f3c 993b f83b d092 e13c 7958 b1bc
000002d0: afa7 123c 1d5b cfbb 9951 893c cce7 953b
000002e0: 86ca ea3b ec69 4f3d 173a 183b a5b0 3f3d
000002f0: ebd9 25bc 8cbb abb2 1e06 8f31 52a5 6a32
00000300: b2be 7732 31fc 9f32 2e66 0f33 c934 35b2
00000310: 7e8a d831 ffa5 a2b0 de3d d23c c339 3d3c
00000320: 4eba a63c d199 e73c 934b f43b 1e94 333c
00000330: e336 cb3c 264c 803c d7c4 eb3c fede 3fb1
00000340: f198 db31 bb36 b331 d7cd df31 cd65 f1b0
00000350: 8877 9130 5bd4 48b1 7bff a9b1 117a db31
00000360: 3b08 06b3 8f6d ac32 3dba 7fb2 1aa9 e532
00000370: d431 bbb1 2c7d d432 263b da32 bf0c 8ab0
00000380: f02d 67b2 657e 233d 8014 103d a814 133d
00000390: 3dc4 1e3d 6a61 943c 1c4a 0e3d 6018 093d
000003a0: 88a1 0c3c 608d 553c 92d2 99bc 78ea 343a
000003b0: dcaa 643d af08 a23c 028f a03c d59a 0e3c
000003c0: fb8b 03bd 2e99 273d 2943 563d 880d 0932
000003d0: 48ea 5532 66cd eb31 1242 c131 c81a 6432
000003e0: bba7 0432 611b b3b3 f16f a732 7c32 7cb1
000003f0: 4d5b 8dba 3d4c 9439 bd51 5e3b 0767 2a3a

model.2.bias f4 [128]
0.08692633 -0.052330516 -1.9361208e-09 -6.0958296e-06 0.0020550669 0.07938068 0.09029338 -3.0887088e-07
0.015966509 2.4400377e-08 0.10411568 -1.0368237e-08 0.0383588 0.0017850575 -0.012469119 0.089378454
-1.4952138e-09 0.108153634 -6.342553e-10 0.030235896 0.15975635 -3.2302495e-08 0.047811106 -6.9331465e-09
5.2015274e-08 0.014147865 0.06915733 -1.3238704e-08 -0.0071582794 -0.018121982 7.1223066e-10 -1.3062276e-08
0.013671527 -0.028553925 0.17055146 0.02230973 5.4562115e-09 -0.047496445 -0.08330077 -7.529934e-08
9.668386e-09 0.00118221 -0.077287555 0.1347942 -0.018813208 0.037674546 0.06442552 0.008854247
0.0808518 -0.06592809 0.025010845 -3.39989e-08 8.5044145e-11 3.1097205e-08 -0.034637775 0.04831557
0.05489207 -0.080573425 0.15973172 0.11734245 -1.8282511e-09 0.00010673021 1.569068e-09 0.0021421344
0.094391316 2.193655e-09 0.07867215 -2.7290367e-10 -2.4928326e-07 0.0060317703 -0.021405818 0.01222149
-0.047464345 0.0034646015 -0.101145014 0.0005865131 0.09330093 2.3191948e-08 -0.042881522 2.502057e-08
0.034553804 -0.026084116 0.026391633 0.05268523 -4.935146e-07 0.03692978 0.012197114 0.030030103
0.029614914 -1.1396866e-09 1.638196e-08 0.08399258 -1.5226406e-07 0.04560016 -0.08120311 0.031915035
0.060575854 0.0873155 -0.0010916789 0.060089882 1.5537855e-09 -0.008829509 6.9837705e-09 0.08814948
9.678699e-09 -1.2041036e-08 -0.024864227 4.3055685e-08 3.2035345e-09 1.0482627e-08 0.07048693 -0.006626064
-2.2769705e-06 0.074136354 0.10194675 0.08337564 0.102099136 0.07144032 -0.15165515 -7.673427e-10
0.1598712 5.5082e-07 -2.3806466e-07 -0.026870502 0.08313651 -4.3346125e-05 -0.047934905 -0.1299892
00000000: 6f06 b23d 8658 56bd 990c 05b1 c78a ccb6
00000010: 4dae 063b 5792 a23d bceb b83d e4d2 a5b4
00000020: 32cc 823c ff98 d132 9a3a d53d fd1f 32b2
00000030: 1e1e 1d3d 97f8 e93a 474b 4cbc 0d0c b73d
00000040: 2980 cdb0 a77f dd3d c057 2eb0 45b1 f73c
00000050: 2b97 233e f8bc 0ab3 94d5 433d 9a38 eeb1
00000060: 6667 5f33 72cc 673c 5ca2 8d3d 7070 63b2
00000070: 0090 eabb 8d74 94bc c7c6 4330 7f68 60b2
00000080: 8afe 5f3c ece9 e9bc 0ba5 2e3e e5c2 b63c
00000090: 5879 bb31 a28b 42bd 9899 aabd 40b4 a1b3
000000a0: 031a 2632 63f4 9a3a f048 9ebd 7e07 0a3e
000000b0: 281e 9abc a050 1a3d 87f1 833d 6711 113c
000000c0: a195 a53d 4e05 87bd 8be3 cc3c 3006 12b3
000000d0: 9903 bb2e bd8f 0533 57e0 0dbd 8ce6 453d
000000e0: 82d6 603d ae03 a5bd b690 233e 3d51 f03d
000000f0: de45 fbb0 58d4 df38 aca6 d730 0d63 0c3b
00000100: 3c50 c13d 30bf 1631 dd1e a13d c707 96af
00000110: 3bd5 85b4 28a6 c53b 415b afbc a53c 483c
00000120: f969 42bd 5e0e 633b 1e25 cfbd 3ac0 193a
00000130: 8f14 bf3d a237 c732 89a4 2fbd d1ec d632
00000140: 4a88 0d3d 5bae d5bc 4433 d83c 78cc 573d
00000150: 117a 04b5 ae43 173d 67d6 473c b101 f63c
00000160: fa9a f23c 28a3 9cb0 50b8 8c32 4d04 ac3d
00000170: 077e 23b4 3cc7 3a3d d14d a6bd 57b9 023d
00000180: 631e 783d 78d2 b23d aa16 8fba cf20 763d
00000190: f88c d530 a5a9 10bc e5f5 ef31 b787 b43d
000001a0: 5e47 2632 09dd 4eb2 10b0 cbbc 3aec 3833
000001b0: 2d25 5c31 1517 3432 745b 903d 741f d9bb
000001c0: 0ece 18b6 cdd4 973d 75c9 d03d d9c0 aa3d
000001d0: 5a19 d13d 4d4f 923d 7d4b 1bbe f1ec 52b0
000001e0: 47b5 233e 10dc 1335 b79e 7fb4 871f dcbc
000001f0: 7943 aa3d 8cce 35b8 6457 44bd e41b 05be

model.5.weight f4 [32, 128, 3, 3]
-9.003308e-06 -3.12735e-05 6.412187e-08 -3.5366096e-08 8.363114e-08 -4.955115e-09 -2.5138845e-06 4.632047e-09
6.7165944e-09 -1.024782e-10 2.3281295e-11 2.962772e-10 -2.3514546e-10 -1.4396566e-10 -2.771428e-10 9.562337e-11
2.7855981e-10 -9.9610806e-11 -4.9840084e-12 -5.6091187e-11 -6.2267926e-14 -1.028024e-10 -8.513158e-11 -9.68083e-12
-2.057274e-11 -9.030911e-11 1.8503367e-12 -1.7734193e-10 -1.3727487e-10 -1.4745484e-10 -1.3833747e-10 -1.9625238e-10
-6.760182e-11 -8.9405434e-11 -3.7457532e-10 -1.986867e-10 -0.0013342509 -0.0012275038 -0.0005218262 -0.0010179462
2.540749e-07 -5.234797e-07 -0.00023440442 -4.1738895e-05 -3.7811293e-10 -0.0014199326 -0.004916304 -0.0011361262
-0.00097109 -0.00025257448 -3.889903e-05 -0.0006545806 -0.00024136178 -1.4497742e-05 -0.0049054944 -0.0057947463
-0.002592208 -0.0006614879 -0.00070229574 -0.0006197533 -0.0011946309 -0.0034677843 -0.0011562998 -7.1493667e-10
-3.3126923e-10 5.3901527e-12 -5.09273e-10 2.5218658e-10 -3.520351e-10 -5.394876e-10 3.344988e-11 -2.8100104e-11
-0.0042994902 -0.007921872 -0.007272799 -0.0010847844 -0.0007995262 -0.00023455879 -0.00059621024 -0.004723421
-0.00066318887 2.1309161e-11 -5.6581642e-11 1.8114748e-11 1.5641452e-11 -1.3950476e-11 -8.286911e-11 -2.2009757e-11
2.524785e-12 -4.927115e-12 4.41277e-10 8.2671325e-10 -1.1803157e-09 -1.7397501e-09 -2.642796e-10 4.227381e-10
1.4734076e-10 -7.279432e-11 -5.1659016e-10 -4.3472056e-11 -5.2559436e-11 -4.2731624e-11 -2.3522526e-11 -1.3063404e-11
2.1739928e-11 1.6734286e-11 9.223971e-11 -2.8856018e-11 -2.387303e-09 -4.4254766e-06 -2.5758903e-10 6.025392e-09
2.1623482e-07 -4.3082818e-10 3.4879721e-09 1.8261731e-10 -4.89122e-10 -4.3920754e-05 -0.00034518843 2.834463e-07
-6.3433423e-09 -6.3608513e-10 5.4617905e-10 -1.9337952e-07 1.6955904e-07 6.865508e-10 5.4521596e-09 -2.0940217e-08
-6.2763483e-10 -2.4264737e-10 -8.653883e-10 6.545177e-10 -3.1369093e-10 3.9234632e-10 1.4694679e-10 -0.009589854
-0.015634311 -0.013089924 -0.0029215459 -0.0047691735 -0.0025546085 -0.0030393365 -0.0033139444 -0.0022162888
1.773416e-11 -4.7764834e-11 -6.737516e-11 2.3846607e-11 -2.7634879e-11 1.35347965e-11 8.881542e-11 -5.5606048e-11
-4.2645835e-11 -0.0016173878 -0.0022421223 -0.0044048615 -0.00039374552 -0.0005695257 -0.0003110646 -0.0003206645
-0.0004567928 -0.00028982328 -1.2104532e-11 -2.412855e-12 -2.527919e-11 3.3986047e-11 -1.0809244e-11 -4.617519e-11
4.6086777e-11 3.1912296e-11 -1.0591849e-10 -0.00011805287 -0.0023925721 -0.00018063579 -0.0007594378 -2.9094721e-05
-9.255159e-06 -0.00032075524 -0.00012988721 1.3322783e-07 1.099339e-09 -8.597906e-06 2.1327303e-11 7.1090306e-10
-4.942647e-10 4.2736287e-10 -2.4835305e-09 1.0662643e-08 -4.5417853e-10 -9.53676e-12 -4.9340938e-11 6.2691984e-11
-9.394842e-11 -4.9947185e-11 -4.3692126e-11 8.396277e-11 2.071285e-11 2.2066477e-11 -0.00069740624 -0.00073615083
-9.282067e-05 2.7487133e-08 -1.1516346e-05 -7.311192e-09 -1.2919187e-05 -5.141829e-05 2.3163943e-07 5.2435577e-11
-3.0604082e-11 2.899192e-11 -2.2793925e-11 -4.4064138e-11 1.5513209e-11 2.2370415e-11 1.1818752e-10 -2.9129376e-11
-4.232251e-11 -5.038234e-11 -1.3721511e-11 2.4714208e-11 1.38612125e-11 1.1312891e-11 -6.799734e-11 4.210038e-11
-3.3055725e-11 -0.0020703026 -0.0030914517 -0.002435006 -0.0018508821 -0.0006588962 -0.00025936586 -0.00053206534
-0.001063588 -1.2352379e-05 2.380713e-09 2.0218467e-07 1.2957679e-09 -1.1214779e-09 1.6990867e-10 9.928844e-10
-3.503374e-09 8.159331e-11 4.2054135e-10 2.38132e-11 -4.2934174e-11 6.353167e-11 1.07051715e-10 1.1573624e-10
1.6336434e-10 -2.1441389e-11 -1.03084215e-10 -1.33431235e-11 -7.919214e-07 -0.00015354269 -2.2546801e-07 5.198632e-08
00000000: ea0c 17b7 aa2b 03b8 5fb3 8933 6fe5 17b3
00000010: b598 b333 a741 aab1 35b4 28b6 eb27 9f31
00000020: cac7 e631 195a e1ae d1c8 cc2d 4fe1 a22f
00000030: c845 81af bb4a 1eaf 625c 98af 2c47 d22e
00000040: cf23 992f e60b dbae f55b afac 10b1 76ae
00000050: 0437 8ca9 9b10 e2ae d234 bbae 954e 2aad
00000060: b1f5 b4ad 8297 c6ae b434 022c 51fd 42af
00000070: 71ef 16af d920 22af 891a 18af 22c8 57af
00000080: 71a8 94ae c99a c4ae caec cdaf 5675 5aaf
00000090: 08e2 aeba 31e4 a0ba 2acb 08ba 9b6c 85ba
000000a0: ca67 8834 4085 0cb5 75ca 75b9 cc10 2fb8
000000b0: aade cfaf 081d baba f218 a1bb 12ea 94ba
000000c0: bf90 7eba f96b 84b9 8427 23b8 2998 2bba
000000d0: 0f16 7db9 543b 73b7 45be a0bb dbe1 bdbb
000000e0: 09e2 29bb b467 2dba 451a 38ba f176 22ba
000000f0: 2995 9cba c443 63bb fc8e 97ba 3285 44b0
00000100: 001e b6af 2ea6 bd2c e7fc 0bb0 1ba4 8a2f
00000110: 8988 c1af 114b 14b0 371d 132e cf2b f7ad
00000120: bde2 8cbb bdca 01bc a950 eebb 532f 8eba
00000130: 4c97 51ba e5f3 75b9 fe4a 1cba edc6 9abb
00000140: dad9 2dba f76f bb2d 44d9 78ae c956 9f2d
00000150: 6b95 892d 5c6b 75ad 293b b6ae 9199 c1ad
00000160: 7caa 312c 825b adac 3798 f22f c63e 6330
00000170: ab38 a2b0 041c efb0 0c4a 91af 1967 e82f
00000180: bd00 222f 8f13 a0ae cdff 0db0 2f31 3fae
00000190: aa28 67ae 88ef 3bae 05e8 cead 57d0 65ad
000001a0: f739 bf2d 4332 932d 57d6 ca2e fad1 fdad
000001b0: e10d 24b1 8e7e 94b6 6f9c 8daf e907 cf31
000001c0: 2d2e 6834 add9 ecaf 0eb1 6f31 34ca 482f
000001d0: e772 06b0 8d37 38b8 68fa b4b9 902c 9834
000001e0: a1f4 d9b1 83d8 2eb0 ef21 1630 c2a3 4fb4
000001f0: 0910 3634 b8b7 3c30 b455 bb31 06e0 b3b2
00000200: e085 2cb0 9565 85af 4ae0 6db0 97e9 3330
00000210: 1374 acaf d6b1 d72f d891 212f c31e 1dbc
00000220: 8713 80bc 1f77 56bc 6877 3fbb ba46 9cbb
00000230: 386b 27bb 9b2f 47bb c32e 59bb 283f 11bb
00000240: c7fd 9b2d 6c12 52ae d828 94ae c9c1 d12d
00000250: 3714 f3ad 4e1b 6e2d a34e c32e d88e 74ae
00000260: f18e 3bae 87fe d3ba 92f0 12bb a856 90bb
00000270: a16f ceb9 394c 15ba 6216 a3b9 dc1e a8b9
00000280: b17d efb9 6cf3 97b9 f7f1 54ad 22ca 29ac
00000290: ad5b dead e378 152e 8228 3ead a414 4bae
000002a0: 19b1 4a2e 0d5a 0c2e cfea e8ae 2793 f7b8
000002b0: b3cc 1cbb 0d69 3db9 0215 47ba 7010 f4b7
000002c0: 9b46 1bb7 0a2b a8b9 5532 08b9 630d 0f34
000002d0: 8d17 9730 ba3f 10b7 d198 bb2d 5b69 4330
000002e0: c9dc 07b0 faf1 ea2f bbaa 2ab1 cd2e 3732
000002f0: f2af f9af c0c5 27ad f500 59ae 73dc 892e
00000300: 4298 ceae 88ab 5bae f628 40ae d6a2 b82e
00000310: 3131 b62d 4a19 c22d 24d2 36ba 3ffa 40ba
00000320: b8a8 c2b8 d81c ec32 5436 41b7 ed35 fbb1
00000330: 7cbf 58b7 f8a9 57b8 90b8 7834 369d 662e
00000340: 2299 06ae 0004 ff2d 5b7f c8ad cfcb 41ae
00000350: a474 882d b2c5 c42d d4f2 012f c31c 00ae
00000360: e922 3aae 7995 5dae 3164 71ad 7363 d92d
00000370: 5ad9 732d bb04 472d 1987 95ae d028 392e
00000380: 7061 11ae eaad 07bb f499 4abb 9f94 1fbb
00000390: 4c99 f2ba c7b9 2cba 7ffb 87b9 4d7a 0bba
000003a0: 1768 8bba 103d 4fb7 f299 2331 1918 5934
000003b0: c816 b230 7f22 9ab0 0ad1 3a2f 0476 8830
000003c0: 02c0 70b1 f36c b32e ef31 e72f 8f76 d12d
000003d0: 95d3 3cae 27b5 8b2e c268 eb2e b681 fe2e
000003e0: f99e 332f b799 bcad 41af e2ae 16bc 6aad
000003f0: 6d94 54b5 4d00 21b9 2d18 72b4 9047 5f33

model.5.bias f4 [32]
-0.014349756 0.05960484 -0.005890461 0.027436363 0.018004222 -0.054392513 -0.041814584 -0.0028651706
0.008842278 0.031067822 -0.0056861537 0.021762608 0.041371606 -0.044990763 -0.024774708 0.0672842
-0.057729222 0.047200974 0.07540592 -0.007825715 0.02040448 -0.03963276 0.034380846 -0.008323731
0.04074094 -0.070438065 1.6637317e-10 -0.042446252 -0.056801982 -0.041278068 -0.045058824 0.05312648
00000000: 3d1b 6bbc 3424 743d c504 c1bb 39c2 e03c
00000010: 977d 933c afca 5ebd c545 2bbd 96c5 3bbb
00000020: 34df 103c f281 fe3c ea52 babb 7f47 b23c
00000030: 4675 293d 3c48 38bd 54f4 cabc 4ccc 893d
00000040: 7a75 6cbd cf55 413d 6b6e 9a3d 6d37 00bc
00000050: 4c27 a73c f655 22bd eed2 0c3d 4260 08bc
00000060: f9df 263d d541 90bd e2ed 362f 1fdc 2dbd
00000070: 32a9 68bd 3113 29bd 9a8f 38bd 279b 593d

model.8.weight f4 [8, 32, 3, 3]
-0.036113914 -0.024678461 -0.03407367 -0.015330837 -0.05859927 -0.001923319 -0.022930859 -0.06100316
-0.026491508 -0.0030666825 -0.05467718 -0.016372735 -0.008977239 -0.031154087 -0.019496262 -0.001944197
-0.047340885 -0.038008496 -0.012013042 -0.021712072 -0.020619383 -0.001329848 -0.0006361663 1.2223639e-07
-0.011704646 -0.005916416 -2.9990513e-06 -0.011460647 -0.004976988 -0.012400702 -0.008078134 -0.009134063
-0.036443226 -0.017498236 -0.009814206 -0.03360367 -2.3466548e-10 1.10157314e-10 6.881536e-11 7.126776e-11
-1.0845883e-11 -9.552727e-11 -1.5113451e-10 -2.259683e-10 -9.37886e-11 -0.06503852 -0.020797094 -0.03216137
-0.029480364 -0.029857285 -0.06319339 -0.025016999 -0.027934836 -0.0069961497 2.2689072e-08 -5.548653e-10
3.3293954e-10 -6.6353034e-09 -9.077249e-10 2.1876014e-10 -0.00043031076 1.8267434e-08 1.8041511e-10 1.624624e-10
6.7448425e-12 -2.153528e-11 1.9036676e-10 -7.46482e-11 7.831093e-11 6.623802e-11 -1.6892683e-10 5.0003092e-11
-0.013964785 -0.04549396 -0.028565686 -0.041823357 -0.003979371 -0.025672052 -0.027863078 -0.035980906
-0.03184387 -0.017275658 -0.0020218021 -0.019223616 -0.0021095346 -0.023242943 -0.003158642 -0.009370332
-0.021769062 -0.00023904826 -0.0120800715 -0.049377836 -0.063387714 -0.008535276 -0.07781574 -0.06123341
-0.0029555103 -0.017584745 -0.07104813 -8.1278406e-10 1.9968062e-10 2.800479e-10 -8.6473845e-10 -1.1117451e-10
-4.0876263e-10 -5.26827e-06 -1.8087351e-06 -2.1204364e-08 -0.00540458 -0.0033480616 -0.00022202624 -0.0033119111
-0.006798649 -0.00050963496 -0.0048463256 -0.009471729 -0.006436401 -9.745302e-11 -1.1385456e-10 1.7936668e-11
-2.8614524e-11 -6.211676e-11 2.1466343e-11 -6.021784e-11 5.1318754e-12 -4.5270024e-11 3.916333e-10 -4.723642e-09
-1.0076245e-06 -2.0122363e-05 -7.956881e-05 3.058954e-10 4.1478714e-07 -7.733497e-10 -9.0999924e-10 -0.034831516
-0.04520088 -0.026074601 -0.03274004 -0.031746455 -0.04723101 -0.04371661 -0.028521061 -0.033621304
-0.037134893 -0.07345789 -0.0036105297 -0.049721766 -0.028578153 -0.008588642 -0.036888644 -0.0021142156
-0.048332125 -8.866337e-11 2.3667066e-10 2.9271746e-10 1.1869015e-10 1.2094263e-10 -3.7667686e-12 1.39020965e-11
-5.7527663e-11 -6.623512e-10 -0.04102388 -0.06282449 -0.005430097 -0.06967633 -0.0060568657 -0.054441184
-0.06658692 -0.05078292 -0.06307256 1.4499558e-10 4.8041743e-10 -3.7248338e-10 -2.3901145e-10 -6.6616807e-10
6.4118805e-10 -2.571337e-10 1.8384953e-10 -4.0159898e-10 -6.4744013e-12 1.86946e-11 -2.6404384e-11 5.1082766e-11
1.5009587e-11 -1.0063899e-10 -2.2227978e-10 7.7210335e-11 1.5129104e-10 -0.007091731 -0.0062681907 -0.0028817651
-0.015288679 -0.01145547 -0.00031816048 -0.00680095 -0.002624484 -3.2224983e-05 -0.031603422 -0.0067445235
-0.0015695774 -0.00676768 -0.0028602984 -0.00042641113 -0.0051389807 -0.0005638007 -4.4857762e-07 -0.00021465652
-5.3013064e-08 7.5385226e-10 -9.0928326e-05 -4.8967896e-09 -1.2052846e-08 -2.7569822e-09 3.8021497e-09 1.2427526e-11
-0.0051029404 -0.0017383675 -0.00011294083 -0.0053042653 -0.005759419 1.8503808e-09 -0.003001358 -0.00046968609
3.590791e-10 -0.017311223 -0.019627884 -0.015389395 -0.02078938 -0.0036189072 -0.011300367 -0.0036359793
-0.026292728 -0.012004011 1.880453e-11 -5.580675e-11 -7.008172e-11 -1.9969464e-12 -1.2995026e-10 8.7320455e-12
-9.6034306e-11 5.4356155e-11 4.7618506e-11 -0.051188216 -0.0068806666 -0.03707353 -0.05468172 -0.06149438
-0.036330804 -0.027056227 -0.021134483 -0.009680794 -0.010775674 -0.0057383827 -0.006645981 -0.006669847
00000000: 2fec 13bd 7c2a cabc d590 0bbd 312e 7bbc
00000010: ca05 70bd e017 fcba 7fd9 bbbc 73de 79bd
00000020: b804 d9bc 65fa 48bb 2ef5 5fbd 1d20 86bc
00000030: 4515 13bc db36 ffbc a0b6 9fbc 6dd4 feba
00000040: 84e8 41bd ccae 1bbd 5ad2 44bc 84dd b1bc
00000050: fbe9 a8bc 4b4e aeba 66c4 26ba 1540 0334
00000060: d8c4 3fbc 7fde c1bb 4f43 49b6 70c5 3bbc
00000070: 0016 a3bb 502c 4bbc 265a 04bc 09a7 15bc
00000080: 7e45 15bd 7658 8fbc c3cb 20bc 00a4 09bd
00000090: 3b02 81af 0e3d f22e 9b53 972e 2fb8 9c2e
000000a0: 84cd 3ead 1211 d2ae 952c 26af 6c74 78af
000000b0: 4a3e ceae ea32 85bd ab5e aabc a4bb 03bd
000000c0: ce80 f1bc 4497 f4bc 896b 81bd 73f0 ccbc
000000d0: 99d7 e4bc f53f e5bb cce5 c232 2d85 18b0
000000e0: 1309 b72f bffc e3b1 7683 79b0 8187 702f
000000f0: 559b e1b9 83ea 9c32 575e 462f 1aa1 322f
00000100: 2450 ed2c 246d bdad 7b4f 512f 3327 a4ae
00000110: 2235 ac2e b1a8 912e adbc 39af 7aea 5b2e
00000120: 8ecc 64bc e057 3abd 9602 eabc f84e 2bbd
00000130: 6265 82bb 324e d2bc 1c41 e4bc b760 13bd
00000140: b86e 02bd ae85 8dbc 3680 04bb d87a 9dbc
00000150: 1e40 0abb fc67 bebc 3801 4fbb 0586 19bc
00000160: 0855 b2bc 07a9 7ab9 7eeb 45bc 6a40 4abd
00000170: 6bd1 81bd 8bd7 0bbc dc5d 9fbd e2cf 7abd
00000180: 3cb1 41bb e20d 90bc af81 91bd 986a 5fb0
00000190: 198d 5b2f 3df5 992f 8fb2 6db0 af79 f4ae
000001a0: 3ab8 e0af 18c6 b0b6 aac3 f2b5 e424 b6b2
000001b0: e718 b1bb 276b 5bbb b7cf 68b9 a60c 59bb
000001c0: 34c7 debb 0699 05ba edcd 9ebb 502f 1bbc
000001d0: 72e8 d2bb 2c4d d6ae 6b5e faae c9c5 9d2d
000001e0: 2eb2 fbad a198 88ae e8d1 bc2d a16b 84ae
000001f0: d38f b42c 8419 47ae 7d4d d72f 984d a2b1
00000200: b73d 87b5 72cc a8b7 2ede a6b8 f32a a82f
00000210: e9af de34 a693 54b0 8123 7ab0 7eab 0ebd
00000220: 8f24 39bd 679a d5bc 6c1a 06bd 9208 02bd
00000230: 4e75 41bd 3010 33bd 00a5 e9bc 7eb6 09bd
00000240: c21a 18bd 1771 96bd a39e 6cbb 0da9 4bbd
00000250: bb1c eabc 60b7 0cbc 8c18 17bd a78e 0abb
00000260: e8f7 45bd 0af9 c2ae 6f1c 822f 52ec a02f
00000270: 4f80 022f 53fa 042f 0988 84ac 7a91 742d
00000280: 6402 7dae d210 36b0 a808 28bd 20aa 80bd
00000290: f5ee b1bb 77b2 8ebd ac78 c6bb b8fd 5ebd
000002a0: b95e 88bd c001 50bd 302c 81bd a16c 1f2f
000002b0: 5f0e 0430 60c6 ccaf df65 83af 691d 37b0
000002c0: 993f 3030 5a5c 8daf 0b25 4a2f 08c8 dcaf
000002d0: 39cc e3ac 7f70 a42d 6341 e8ad 15aa 602e
000002e0: 9606 842d b74e ddae 3266 74af 8ec9 a92e
000002f0: a458 262f c061 e8bb 6565 cdbb ffdb 3cbb
00000300: 5e7d 7abc b9af 3bbc c7ce a6b9 81da debb
00000310: 89ff 2bbb 5029 07b8 9772 01bd 2a01 ddbb
00000320: 47ba cdba 6ac3 ddbb d873 3bbb ef8f dfb9
00000330: e564 a8bb 06cc 13ba 0ad4 f0b4 6c15 61b9
00000340: 7bb0 63b3 a337 4f30 c6b0 beb8 9e40 a8b1
00000350: fa10 4fb2 5875 3db1 10a4 8231 9aa0 5a2d
00000360: 9136 a7bb efd9 e3ba a5da ecb8 67cf adbb
00000370: 82b9 bcbb 7d50 fe30 6eb2 44bb 3340 f6b9
00000380: e467 c52f 44d0 8dbc a8ca a0bc cd23 7cbc
00000390: 7d4e aabc 302b 6dbb 2d25 39bc 9c49 6ebb
000003a0: d963 d7bc 79ac 44bc 0a68 a52d d170 75ae
000003b0: 801c 9aae ca85 0cac bfe1 0eaf a39d 192d
000003c0: 822e d3ae 970f 6f2e ac6d 512e bcaa 51bd
000003d0: 3777 e1bb 6ada 17bd f0f9 5fbd 88e1 7bbd
000003e0: 9ccf 14bd 05a5 ddbc 3922 adbc 319c 1ebc
000003f0: 748c 30bc 0b09 bcbb 88c6 d9bb bb8e dabb

model.8.bias f4 [8]
-0.07187506 -0.045309883 -0.06203732 0.025143696 0.053738415 -0.06722438 0.05451462 -0.020784931
00000000: 3b33 93bd db96 39bd d81a 7ebd 27fa cd3c
00000010: d01c 5c3d f0ac 89bd b94a 5f3d 2945 aabc

model.12.weight f4 [16, 48]
-0.00036089806 1.0354584e-07 4.917355e-08 0.00019297568 1.0981904e-08 -1.9434183e-09 0.13800023 -0.18683344
-0.056961212 -0.2599315 -0.27825412 -0.06826478 -0.20417154 -0.29948103 0.12173372 -0.007924746
-0.13533945 -0.10976993 -0.07089266 -0.16272801 -0.1320221 -0.030837713 0.0014182797 -0.02530348
-0.23314497 -0.3023712 0.15768588 0.07941971 -0.22872153 -0.17659391 -1.2858656e-05 2.593789e-07
1.0360063e-06 -0.0006515356 -5.3645366e-05 -4.9458256e-05 -0.18691878 -0.11820955 0.0853685 0.16037296
0.0764939 0.062735975 -0.05993559 -0.16995366 -0.115782015 -0.049301103 -0.04907007 -0.061691068
-0.024925584 -0.052175727 -0.07164802 0.09423883 -0.008302755 -0.00079659827 -0.012760939 0.19677794
0.20558865 -0.06626543 -0.161579 0.02897647 0.063812874 -0.08035649 -0.05707359 -0.05782617
0.28329477 -0.12420637 -0.17298004 -0.044229332 0.2510187 -0.04755486 -0.19266772 0.031950586
-0.04702672 0.05686063 0.029584339 -0.13000658 0.23508954 0.29828462 -0.034313284 -0.085052274
0.1097351 -0.06355193 0.03968696 0.113791466 0.35484385 0.122146815 -0.049947023 0.33149973
-0.086393714 -0.09851483 0.021134367 -0.028143013 -0.06705723 -0.05500336 0.014110963 -0.00862249
1.4878927e-06 4.291522e-06 -5.8367067e-07 0.000102264756 1.407264e-07 3.314557e-08 0.051221915 0.034379758
-0.05069343 0.06126289 0.13477996 0.04735043 0.16783582 -0.04937728 0.15786915 -0.056596093
0.020359024 0.037781682 1.1120122e-05 7.2916046e-06 5.6940826e-06 9.1255226e-10 -6.9040484e-10 3.8031986e-10
0.053613123 0.0003462628 -0.03882568 0.18752955 0.2396136 0.18188612 1.8881237e-05 -3.2000946e-07
-6.2984583e-07 4.5526092e-05 6.418167e-06 8.242462e-06 0.16858241 -0.0946606 -0.07140919 0.10399645
0.18907644 -0.0047408007 0.007074392 0.0060484987 0.0065848865 0.005321467 0.0011322229 0.0015852643
-1.1883459e-09 -1.7538405e-10 -1.2352113e-09 -2.9419276e-09 -1.1701654e-08 -3.5391415e-10 0.14960971 0.16772659
0.20191091 -0.12184442 0.26962844 0.14737007 9.3632525e-06 2.0093103e-06 -3.550116e-05 -7.1072477e-06
-7.340112e-06 -1.9599928e-07 0.23013553 -0.005737606 -0.009446913 0.13948826 0.086834 0.17092834
-0.029764082 0.028067313 0.04609197 -0.014653638 -0.064959876 -0.14573787 5.9905196e-09 -3.0504316e-10
-1.226186e-08 1.4701267e-09 2.7084444e-09 -1.068525e-08 -0.15594558 -0.10498527 0.18786737 -0.09190548
-0.16276626 0.28375757 -0.054697484 -0.06197661 -0.072149575 -0.041506533 -0.043680515 -0.045888294
0.029826913 0.01717982 0.014525041 0.023022857 0.011724207 -0.0013043843 -0.15145668 0.3013742
0.13120648 -0.048633076 -0.04852228 -0.13235335 -0.18368894 -0.17605765 0.024763959 -0.15474446
0.016029634 0.1643186 -0.10238446 0.26427072 0.34650597 -0.15495558 -0.041840985 -0.11429235
0.17762965 -0.079828024 -0.08742008 0.3693838 -0.031255864 0.22087005 -0.004688765 -0.018333934
0.033098374 0.03719534 -0.0018887413 -0.028061919 -0.12155093 0.23065262 0.23115905 -0.0649259
0.15274413 0.33692533 0.0747679 -0.023957176 0.035783682 -0.05136691 0.016395677 -0.013089988
0.01665835 -0.007609219 -0.0035665277 -0.030949125 -0.009875837 -0.016977705 -0.094037466 -0.235832
-0.07855425 -0.04841072 -0.23260576 -0.27021098 -0.21840937 0.109671675 0.16055626 0.1873047
00000000: eb36 bdb9 ed5c de33 e432 5333 8459 4a39
00000010: edaa 3c32 fa8c 05b1 ef4f 0d3e 4451 3fbe
00000020: 2950 69bd be15 85be 5377 8ebe 68ce 8bbd
00000030: 5812 51be 9455 99be 874f f93d cbd6 01bc
00000040: 6d96 0abe 0fcf e0bd 2c30 91bd 2ca2 26be
00000050: cd30 07be 5f9f fcbc 92e5 b93a 3e49 cfbc
00000060: 8ebd 6ebe 66d0 9abe 6878 213e cda6 a23d
00000070: fa35 6abe 09d5 34be 82bb 57b7 c440 8b34
00000080: e80c 8b35 d0cb 2aba 4601 61b8 6671 4fb8
00000090: a367 3fbe d917 f2bd aed5 ae3d cf38 243e
000000a0: d5a8 9c3d b87b 803d 057f 75bd 5508 2ebe
000000b0: 1f1f edbd f4ef 49bd b3fd 48bd c6af 7cbd
000000c0: bd30 ccbc 37b6 55bd 32bc 92bd 4a00 c13d
000000d0: 4708 08bc ced2 50ba 4213 51bc 2880 493e
000000e0: d585 523e 2bb6 87bd f774 25be 1060 ed3c
000000f0: 53b0 823d f291 a4bd ffc5 69bd 22db 6cbd
00000100: 030c 913e e95f febd ae21 31be d129 35bd
00000110: 8685 803e e3c8 42bd b04a 45be 9ede 023d
00000120: 179f 40bd b1e6 683d db5a f23c 7220 05be
00000130: 50bb 703e c3b8 983e 168c 0cbd e32f aebd
00000140: ccbc e03d 8427 82bd cb8e 223d 800b e93d
00000150: 18ae b53e 1c28 fa3d 4095 4cbd 55ba a93e
00000160: 30ef b0bd 25c2 c9bd fb21 ad3c 2d8c e6bc
00000170: 4d55 89bd 344b 61bd ab31 673c 5845 0dbc
00000180: 9bb3 c735 e5ff 8f36 8bad 1cb5 f976 d638
00000190: 941a 1734 f15b 0e33 12ce 513d cad1 0c3d
000001a0: eaa3 4fbd ccee 7a3d c203 0a3e 86f2 413d
000001b0: 27dd 2b3e d53f 4abd 73a8 213e 4ed1 67bd
000001c0: f8c7 a63c f7c0 1a3d 8f90 3a37 68aa f436
000001d0: cc0f bf36 28d7 7a30 ecc6 3db0 4315 d12f
000001e0: 6f99 5b3d 9b8a b539 ad07 1fbd bf07 403e
000001f0: 445d 753e 5b40 3a3e 2663 9e37 c4cd abb4
00000200: ad12 29b5 45f3 3e38 a25b d736 1b49 0a37
00000210: dea0 2c3e 6bdd c1bd fb3e 92bd 17fc d43d
00000220: 419d 413e b858 9bbb 4dd0 e73b 7c32 c63b
00000230: 08c6 d73b b35f ae3b 1967 943a a5c8 cf3a
00000240: 3453 a3b0 39d6 40af 22c4 a9b0 f02a 4ab1
00000250: 6b08 49b2 fd90 c2af 4a33 193e 85c0 2b3e
00000260: bcc1 4e3e 9189 f9bd bd0c 8a3e 2ee8 163e
00000270: dd16 1d37 b0d7 0636 15e7 14b8 cb7a eeb6
00000280: 154b f6b6 df73 52b4 a6a8 6b3e 8702 bcbb
00000290: 3ac7 1abc 03d6 0e3e 06d6 b13d d707 2f3e
000002a0: ced3 f3bc 6ced e53c efca 3c3d d015 70bc
000002b0: af09 85bd 4f3c 15be 2bd5 cd31 02b3 a7af
000002c0: 3ba8 52b2 7c0d ca30 751f 3a31 3a92 37b2
000002d0: 33b0 1fbe 8402 d7bd 4e60 403e f138 bcbd
000002e0: 33ac 26be ac48 913e 780a 60bd 30db 7dbd
000002f0: 28c3 93bd c102 2abd 57ea 32bd 5df5 3bbd
00000300: 9257 f43c b2bc 8c3c 70fa 6d3c 6e9a bc3c
00000310: e316 403c e0f7 aaba 7617 1bbe b84d 9a3e
00000320: fe5a 063e 7a33 47bd 4cbf 46bd a387 07be
00000330: f418 3cbe 7548 34be c9dd ca3c 5575 1ebe
00000340: 9450 833c 2343 283e f2ae d1bd 7e4e 873e
00000350: 3b69 b13e adac 1ebe 7461 2bbd 1c12 eabd
00000360: 8ce4 353e e07c a3bd 4d09 b3bd e01f bd3e
00000370: 2606 00bd c22b 623e 36a4 99bb 0c31 96bc
00000380: 2992 073d 245a 183d a48f f7ba 1ce2 e5bc
00000390: b2ef f8bd 3330 6c3e f5b4 6c3e dff7 84bd
000003a0: f568 1c3e 7a81 ac3e ea1f 993d d741 c4bc
000003b0: e991 123d 1c66 52bd 3a50 863c 6477 56bc
000003c0: 1877 883c c156 f9bb 68bc 69bb 0589 fdbc
000003d0: 43ce 21bc d414 8bbc b796 c0bd f27d 71be
000003e0: 0de1 a0bd 524a 46bd 3430 6ebe 1859 8abe
000003f0: b5a6 5fbe 8b9b e03d dc68 243e cecc 3f3e

model.12.bias f4 [16]
-0.09094201 0.08819749 0.06970415 0.034421552 0.12369172 -0.083274655 0.012802794 0.09827965
0.039888702 -0.056007117 0.08176281 -0.023703547 0.036504332 0.08579551 -0.002437701 0.07082359
00000000: ce3f babd e3a0 b43d 0dc1 8e3d 9dfd 0c3d
00000010: 1652 fd3d e78b aabd cfc2 513c d746 c93d
00000020: 5662 233d b867 65bd 4373 a73d f12d c2bc
00000030: 9185 153d 8eb5 af3d d6c1 1fbb f50b 913d

model.15.weight f4 [4, 16]
-0.0832575 -0.55933064 0.028403254 0.26683453 -0.63634336 0.45297828 0.23660064 -0.12196898
-0.17618592 0.4550712 -0.57571447 0.26498416 -0.567716 -0.524847 0.36182716 -0.08140666
0.8895799 -0.37611842 -0.67811084 0.17081292 -0.8131344 0.47732055 -0.16923939 -0.58814
-0.103692755 0.24815783 -0.42339584 -0.5779152 -0.32198176 -0.42166358 0.18323855 -0.66788137
-0.021373874 -0.33908895 -0.31760874 0.11742526 0.31543624 0.06393642 0.070847966 -0.035634786
-0.4402843 0.0896593 -0.10675935 -0.19133629 -0.08166803 -0.27353236 -0.064126104 -0.42794588
-0.34224018 0.24312201 -0.09055034 -0.118281014 -0.09949131 -0.07775113 0.2046113 0.4250858
-0.0914941 -0.24151888 0.32959136 0.21583302 -0.120040424 0.036918346 0.13879563 -0.13607244
00000000: e882 aabd 4b30 0fbf f1ad e83c 899e 883e
00000010: 66e7 22bf c5ec e73e 7047 723e dfca f9bd
00000020: 156a 34be 18ff e83e 0662 13bf 01ac 873e
00000030: d655 11bf 5f5c 06bf 6941 b93e 89b8 a6bd
00000040: 82bb 633f 9892 c0be ac98 2dbf 95e9 2e3e
00000050: 9329 50bf 5c63 f43e 174d 2dbe 5890 16bf
00000060: de5c d4bd 161d 7e3e 57c7 d8be 40f2 13bf
00000070: cbda a4be 4ae4 d7be e3a2 3b3e 46fa 2abf
00000080: 4318 afbc 119d adbe 9d9d a2be a87c f03d
00000090: dc80 a13e 19f1 823d bd18 913d c8f5 11bd
000000a0: f26c e1be 4c9f b73d a5a4 dabd a9ed 43be
000000b0: 9141 a7bd 6f0c 8cbe 8c54 83bd b91b dbbe
000000c0: 1b3a afbe faf4 783e 7572 b9bd 513d f2bd
000000d0: 1ac2 cbbd fc3b 9fbd a085 513e d9a4 d93e
000000e0: 4261 bbbd ba50 77be 33c0 a83e 5503 5d3e
000000f0: c1d7 f5bd b137 173d 7120 0e3e 9356 0bbe

model.15.bias f4 [4]
-0.21389954 -0.3281156 -0.08637621 0.18752444
00000000: 7b08 5bbe c5fe a7be 03e6 b0bd 6806 403e

exp_avg f4 [1, 3, 1, 1]
1.4734362e-06 -4.5863408e-06 -6.637288e-07
00000000: e2c2 c535 5ee4 99b6 192b 32b5

exp_avg_sq f4 [1, 3, 1, 1]
9.99569e-09 9.711624e-09 7.861242e-09
00000000: 82b9 2b32 2dd8 2632 1c0e 0732

exp_avg f4 [128, 1, 3, 3]
3.4987022e-07 6.0450496e-08 2.8452135e-07 9.7342635e-08 3.260632e-07 5.674458e-08 5.4191116e-07 -3.428688e-08
1.3361641e-07 1.815017e-07 1.770266e-08 -2.9869263e-08 1.3439656e-07 -3.7501234e-08 7.976188e-08 1.9666246e-09
-4.7522928e-08 4.0374445e-08 -5.8544524e-16 7.296528e-15 -2.5785518e-17 7.178233e-16 1.5102176e-15 5.61721e-15
-1.217938e-15 1.1173945e-15 4.9511727e-15 -4.231503e-13 5.5334762e-14 3.2869673e-15 1.3515197e-14 1.4729645e-13
2.7319832e-13 1.568765e-14 5.13111e-14 -2.5942847e-14 2.4389112e-07 3.3488286e-07 2.7887165e-07 2.9919278e-07
3.58051e-07 3.5492943e-07 1.2972058e-07 9.284325e-08 2.8562252e-07 5.044312e-07 -3.092672e-08 5.357582e-07
5.1355926e-07 4.8007615e-07 5.8588324e-07 4.7003002e-07 1.5500792e-07 3.6535337e-09 9.143187e-08 2.8547493e-07
-3.4285745e-07 -3.1221995e-07 3.7661982e-07 5.256528e-07 7.1777384e-07 5.5959845e-07 6.456123e-07 1.7348366e-14
-1.9954587e-14 -1.5600837e-15 2.4952324e-15 -2.5444777e-14 7.6985e-15 3.825086e-14 4.5529342e-15 -1.1926839e-14
9.265599e-07 -2.5898032e-07 -7.3171765e-07 1.1513132e-06 -3.5294588e-07 -6.0494557e-07 9.923208e-07 1.1786906e-06
1.1537064e-06 -1.0520661e-13 -8.755766e-14 4.5888836e-15 9.908094e-14 7.4857214e-14 1.1987821e-13 7.775108e-14
1.1700516e-13 -1.4424983e-14 -3.8549123e-07 -1.883019e-07 -1.7173639e-07 1.4475538e-07 -4.1788198e-07 -3.3663196e-07
4.6491562e-07 -3.284355e-08 2.617508e-07 -4.586512e-15 -8.552133e-15 1.989858e-14 -1.8486594e-14 2.2680635e-15
4.155094e-15 -9.6689726e-15 4.7536685e-16 1.3916862e-14 5.218024e-07 6.228235e-07 9.472864e-08 -1.8096702e-07
4.4603937e-07 2.3930443e-07 -4.0048125e-08 -8.893842e-08 3.3603065e-08 1.5548766e-08 1.2708212e-07 1.3146257e-07
4.482425e-08 1.4342235e-07 7.885838e-08 2.084123e-07 2.053423e-07 2.5486816e-07 4.3714105e-13 -1.6902758e-13
3.967366e-14 2.6578197e-12 -1.870086e-13 5.2056794e-15 1.7141467e-10 1.8370695e-13 2.0142391e-11 4.987451e-07
5.0367083e-07 2.0796618e-07 4.1065366e-07 5.049927e-07 3.1928514e-07 4.659179e-07 3.0456314e-07 4.7082284e-07
-1.9897316e-15 4.4394682e-15 -1.44935e-14 -3.2028128e-15 9.135919e-15 -1.0151521e-14 -1.3394972e-15 -1.7767634e-15
-1.14075644e-14 4.146341e-07 1.6013894e-07 3.9555383e-07 3.3111004e-07 3.138972e-07 3.8922607e-07 1.3048172e-07
3.6223494e-07 3.2494864e-07 2.0641968e-14 1.1901921e-14 -7.678077e-15 -7.127502e-15 7.793284e-15 -5.5604426e-15
-6.1537113e-15 -5.9800687e-15 8.359157e-15 4.0576143e-07 1.3963066e-07 1.7184387e-07 3.1939956e-07 1.4713116e-07
8.606321e-08 5.073114e-08 2.7264505e-07 -2.652017e-07 7.403126e-08 -9.619052e-08 1.5980346e-07 2.6369811e-08
5.522157e-08 5.331906e-07 -2.525521e-10 4.9337365e-07 -1.3868829e-07 -1.1493667e-13 1.2880944e-13 7.3603985e-14
1.211989e-13 1.03263745e-13 4.0535568e-14 -1.2868355e-13 9.019614e-14 -1.193443e-13 2.60062e-07 9.5933665e-08
1.9603573e-07 2.896146e-07 4.8873925e-08 8.9195694e-08 2.4729724e-07 1.427731e-07 2.9473847e-07 2.5906828e-14
6.997941e-15 2.602868e-14 -1.8996769e-14 2.1299023e-14 1.312192e-14 -2.4480946e-14 9.617877e-15 -7.488468e-15
4.879688e-14 8.742447e-14 -8.035475e-14 -2.4417607e-14 -1.07621757e-13 4.811506e-14 1.4360105e-14 9.7342476e-14
3.001265e-14 3.9346617e-07 3.4027735e-07 3.498845e-07 3.8033534e-07 1.4570021e-07 3.3530904e-07 3.2565626e-07
4.4652285e-08 9.685657e-08 -2.1108023e-07 4.6262943e-10 5.910451e-07 2.0512822e-07 2.0302281e-07 8.630455e-08
-3.5068396e-07 4.3016095e-07 5.496676e-07 -1.2469577e-13 -8.007179e-14 -1.348882e-13 -1.21553e-13 -7.87715e-14
-1.3543188e-13 -2.4509486e-14 1.7083656e-13 1.783556e-13 -1.259671e-08 3.3601215e-09 4.083329e-08 7.652759e-09
00000000: ccd5 bb34 03d1 8133 51c0 9834 ae0a d133
00000010: c90d af34 53b7 7333 da77 1135 d342 13b3
00000020: 3378 0f34 cfe2 4234 9010 9832 9a49 00b3
00000030: a54e 1034 0b11 21b3 8f49 ab33 3a25 0731
00000040: 031c 4cb3 2c68 2d33 3cbe 28a6 4c71 0328
00000050: 55d4 eda3 03e6 4e26 32a5 d926 9e61 ca27
00000060: fb85 afa6 9508 a126 8262 b227 6336 eeaa
00000070: a334 7929 d8d9 6c27 d877 7328 50d7 252a
00000080: 07cc 992a 424d 8d28 ac15 6729 22ac e9a8
00000090: 24f0 8234 f3c9 b334 d4b7 9534 bea0 a034
000000a0: 283a c034 218d be34 5249 0b34 1e61 c733
000000b0: a957 9934 4068 0735 4ad4 04b3 06d1 0f35
000000c0: 86db 0935 95de 0035 9745 1d35 6f58 fc34
000000d0: 4170 2634 a511 7b31 3459 c433 6043 9934
000000e0: f811 b8b4 2f9f a7b4 3c32 ca34 961a 0d35
000000f0: 0bad 4035 5037 1635 244e 2d35 9c42 9c28
00000100: 25bc b3a8 eed4 e0a6 eacc 3327 a92f e5a8
00000110: 11af 0a28 3d44 2c29 6809 a427 d6da 56a8
00000120: b6b8 7835 fc09 8bb4 416b 44b5 d286 9a35
00000130: 837c bdb4 8b63 22b5 e22f 8535 8033 9e35
00000140: 0dd9 9a35 7be7 eca9 8e29 c5a9 fb54 a527
00000150: 461c df29 3f90 a829 8bf8 062a 7214 af29
00000160: 71bc 032a bfed 81a8 83f5 ceb4 0830 4ab4
00000170: 8a66 38b4 0e6e 1b34 4359 e0b4 58ba b4b4
00000180: 8499 f934 dd0f 0db3 c286 8c34 1b3f a5a7
00000190: c10f 1aa8 003b b328 2f83 a6a8 636e 2327
000001a0: fab3 9527 442e 2ea8 e203 0926 33b4 7a28
000001b0: fd11 0c35 1b30 2735 9f6d cb33 d64f 42b4
000001c0: 2f77 ef34 c079 8034 6101 2cb3 6afe beb3
000001d0: f652 1033 1990 8532 1174 0834 2828 0d34
000001e0: c984 4033 a3ff 1934 da58 a933 f0c7 5f34
000001f0: 107c 5c34 d0d4 8834 aa16 f62a e24e 3eaa
00000200: 9eac 3229 0607 3b2c 8f8d 52aa eb8d bb27
00000210: f178 3c2f ecd5 4e2a a22c b12d 81e1 0535
00000220: ff33 0735 4f4d 5f34 cf77 dc34 d68e 0735
00000230: 376a ab34 4523 fa34 d782 a334 66c5 fc34
00000240: 1260 0fa7 def2 9f27 bc8b 82a8 78c9 66a7
00000250: fd93 2428 a1df 36a8 b90a c1a6 8007 00a7
00000260: 1b80 4da8 e09a de34 a8f2 2b34 815c d434
00000270: 6bc3 b134 b485 a834 d3f6 d034 8b1a 0c34
00000280: 3179 c234 9a74 ae34 23ed b928 ec67 5628
00000290: e150 0aa8 cd65 00a8 2e64 0c28 0856 c8a7
000002a0: f8b5 dda7 6674 d7a7 cf95 1628 6dd7 d934
000002b0: 62ed 1534 1584 3834 f179 ab34 1bfb 1d34
000002c0: c0d1 b833 7ae3 5933 0d60 9234 0b61 8eb4
000002d0: 1efb 9e33 4c91 ceb3 7196 2b34 d483 e232
000002e0: c22c 6d33 9420 0f35 8cd7 8aaf 6170 0435
000002f0: 59ea 14b4 3d68 01aa cb06 112a cfbd a529
00000300: 3475 082a 7f87 e829 548e 3629 82e2 10aa
00000310: 891a cb29 a75e 06aa a69e 8b34 1704 ce33
00000320: e47d 5234 547c 9b34 73e9 5133 da8b bf33
00000330: 46c4 8434 2c4d 1934 8c3c 9e34 1459 e928
00000340: 9d20 fc27 0d72 ea28 911b aba8 34d8 bf28
00000350: 2d62 6c28 3881 dca8 a142 2d28 77e6 06a8
00000360: f9c2 5b29 c7dc c429 5cf1 b4a9 2bef dba8
00000370: b857 f2a9 e3b0 5829 2658 8128 1e32 db29
00000380: 3b2a 0729 943d d334 5daf b634 c2d7 bb34
00000390: e430 cc34 c571 1c34 8604 b434 dbd5 ae34
000003a0: b5c7 3f33 76ff cf33 4ba5 62b4 4e55 fe2f
000003b0: 4fa8 1e35 3741 5c34 7cfe 5934 6e56 b933
000003c0: a345 bcb4 dff0 e634 df8c 1335 1c65 0caa
000003d0: 3f4e b4a9 e0de 17aa 44db 08aa ae60 b1a9
000003e0: 957b 18aa 07c3 dca8 4958 402a 80cf 482a
000003f0: eb68 58b2 e2e7 6631 ad60 2f33 3179 0332

exp_avg_sq f4 [128, 1, 3, 3]
2.651358e-11 2.5159368e-11 2.3364253e-11 2.9786108e-11 2.7597038e-11 2.9099037e-11 3.8239648e-11 3.7180908e-11
3.8451752e-11 2.1440636e-11 1.6526213e-11 1.29858355e-11 1.951877e-11 1.530222e-11 1.6418358e-11 1.43262355e-11
1.2793218e-11 1.616905e-11 1.0168363e-15 3.961901e-14 1.0081866e-15 1.7576847e-14 2.075276e-15 2.9031617e-14
4.3043313e-15 7.639433e-16 4.480822e-14 9.809806e-13 6.6374494e-13 6.052816e-13 6.141171e-13 7.152321e-13
1.1150038e-12 2.9583524e-13 5.4673453e-13 5.6404154e-13 1.6132774e-11 1.6984737e-11 1.612839e-11 1.7577842e-11
1.9362494e-11 1.8669741e-11 1.9187653e-11 2.1238577e-11 1.8321721e-11 3.85269e-11 3.9276284e-11 3.8295984e-11
3.908921e-11 4.1338707e-11 3.7961006e-11 3.689001e-11 3.5280626e-11 3.3743223e-11 6.6202786e-11 6.442694e-11
5.682642e-11 6.89938e-11 7.7817905e-11 7.4564896e-11 7.4325414e-11 8.406097e-11 8.342932e-11 8.1405463e-14
9.8915396e-14 2.8143412e-14 1.2856753e-13 1.07994546e-13 4.438907e-14 6.708206e-13 2.0917147e-13 5.931176e-14
1.5745169e-10 1.3325274e-10 1.3476183e-10 1.8242384e-10 1.6618402e-10 1.5693148e-10 1.8353966e-10 1.8536343e-10
1.7973383e-10 1.1101867e-14 1.2969332e-14 1.3774864e-13 6.505925e-14 8.7375955e-14 5.2189173e-14 9.291442e-14
5.786822e-14 1.8972954e-14 3.7667508e-11 3.435064e-11 3.8613997e-11 5.463853e-11 4.3648862e-11 3.633142e-11
6.801856e-11 6.189909e-11 5.9349074e-11 3.211828e-16 1.4079865e-14 3.0846776e-15 7.839274e-15 2.897716e-16
2.7133887e-14 1.8246702e-14 4.9486435e-15 3.8253165e-16 4.7521757e-11 5.147828e-11 4.2046314e-11 3.754937e-11
4.470655e-11 4.0412472e-11 2.6210128e-11 2.573874e-11 2.4643136e-11 1.679657e-11 1.692749e-11 1.8989536e-11
1.568706e-11 1.446316e-11 1.6758296e-11 2.0332852e-11 1.7314742e-11 1.901666e-11 2.0024778e-12 6.787492e-13
6.9522133e-13 2.115389e-12 7.863649e-13 4.2978517e-13 3.611933e-12 2.696257e-12 2.9581624e-12 1.948226e-11
2.1695996e-11 2.6019189e-11 1.9015173e-11 1.9968187e-11 2.2616624e-11 2.0871345e-11 2.0606307e-11 1.9885581e-11
1.4167361e-14 1.9926301e-14 8.466237e-14 8.704036e-15 5.0979894e-14 6.034097e-14 1.7729714e-14 2.2285384e-14
6.229226e-14 2.1841001e-11 2.5023454e-11 2.2142885e-11 2.1132873e-11 2.153817e-11 2.0172582e-11 2.3344948e-11
1.8381883e-11 1.7357204e-11 4.987129e-14 5.4580774e-14 1.4089318e-14 2.5593908e-16 7.0767285e-14 1.4731855e-14
7.9380784e-14 1.359264e-15 2.4900293e-15 3.34958e-11 2.9095486e-11 2.841115e-11 3.5016035e-11 3.605165e-11
3.4570194e-11 3.5286395e-11 3.768012e-11 3.9315922e-11 3.4470114e-11 3.0557862e-11 3.9805468e-11 3.753429e-11
3.8500026e-11 4.2233904e-11 3.3087946e-11 3.7347198e-11 3.2446698e-11 1.2048835e-15 2.7949944e-15 8.9678895e-14
1.0576678e-16 8.6696506e-14 4.279745e-15 1.0849437e-14 5.892738e-14 9.594542e-15 1.8436275e-11 2.175097e-11
2.4156219e-11 1.9586078e-11 2.1773068e-11 2.3563504e-11 2.282474e-11 2.114678e-11 2.0501137e-11 4.3099998e-16
4.6871568e-15 8.951633e-14 8.717626e-16 4.208523e-14 6.419764e-14 2.2317685e-16 2.3039394e-14 5.4739106e-15
1.9904467e-15 3.6277036e-15 1.3150337e-14 5.4726257e-15 1.0113214e-14 4.242198e-15 4.8294193e-15 4.4449545e-14
2.5767078e-14 2.4005142e-11 2.2556105e-11 2.0786477e-11 2.5031116e-11 2.6218586e-11 2.3366859e-11 2.2774541e-11
2.8266257e-11 3.0796185e-11 5.441629e-11 6.016046e-11 7.613154e-11 7.363295e-11 7.762785e-11 8.178355e-11
7.669987e-11 8.333332e-11 9.35125e-11 2.7368654e-13 2.750772e-13 2.8243662e-13 3.9894195e-13 2.3297252e-13
2.7949407e-13 2.8860745e-16 7.580549e-14 4.207104e-14 1.8792702e-11 1.5996336e-11 1.429928e-11 1.7383059e-11
00000000: 4637 e92d dc4d dd2d 9f83 cd2d 2d00 032e
00000010: 01bf f22d 35f5 ff2d 042e 282e fb85 232e
00000020: d31c 292e 0598 bc2d b95d 912d 0173 642d
00000030: 5db0 ab2d 8999 862d db6a 902d a107 7c2d
00000040: 880f 612d 7739 8e2d a38a 9226 9c6d 3229
00000050: 854b 9126 7351 9e28 168a 1527 2dbf 0229
00000060: 7314 9b27 1131 5c26 5ccc 4929 8d0f 8a2b
00000070: ddd3 3a2b 235f 2a2b cddb 2c2b e851 492b
00000080: 3fec 9c2b 5a8a a62a 60e4 192b 7ac3 1e2b
00000090: c7e7 8d2d 3a66 952d e8dd 8d2d c89d 9a2d
000000a0: 7650 aa2d 8538 a42d c1c6 a82d 06d1 ba2d
000000b0: d928 a12d 6f71 292e 2abd 2c2e 726d 282e
000000c0: 8aea 2b2e 3fcf 352e 4bf4 262e 753e 222e
000000d0: 742a 1b2e 7e67 142e db94 912e 25ad 8d2e
000000e0: dcec 792e 0eb8 972e 961f ab2e 4ef8 a32e
000000f0: 7d71 a32e 1fda b82e 8876 b72e 0e4f b729
00000100: d8bc de29 4a7e fd28 11c1 102a 9e2e f329
00000110: 1de9 4729 b8d1 3c2b 9281 6b2a e78e 8529
00000120: b61e 2d2f 5083 122f 152c 142f bf93 482f
00000130: a5b8 362f 498c 2c2f d2cd 492f 2bcf 4b2f
00000140: 939e 452f 53fe 4728 7da2 6928 5817 1b2a
00000150: 1b80 9229 cfc0 c429 050a 6b29 8439 d129
00000160: c24e 8229 a7e4 aa28 d8a9 252e 6213 172e
00000170: 7fd3 292e 844d 702e 40f8 3f2e 8bc9 1f2e
00000180: 0c93 952e 171e 882e 8f82 822e 3726 b925
00000190: eba3 7d28 4246 5e27 4538 0d28 be0a a725
000001a0: 7c66 f428 085a a428 2e4b b227 b583 dc25
000001b0: be00 512e 6467 622e f1eb 382e d524 252e
000001c0: 1a9f 442e 66bc 312e f68b e62d 7d66 e22d
000001d0: 69c3 d82d 83be 932d 52e5 942d a208 a72d
000001e0: 1efc 892d 4870 7e2d 5468 932d 83d9 b22d
000001f0: 554d 982d b645 a72d 6fe9 0c2c 090d 3f2b
00000200: faaf 432b 76db 142c 9057 5d2b 92f2 f12a
00000210: cd2a 7e2c 73bb 3d2c 8429 502c 265e ab2d
00000220: 0ad7 be2d 01de e42d 5d42 a72d 5ca4 af2d
00000230: 1cf0 c62d 1796 b72d 4741 b52d 59ea ae2d
00000240: 6c37 7f28 ec7a b328 89a4 be29 48cc 1c28
00000250: d197 6529 33e0 8729 f0b1 9f28 99ba c828
00000260: 0b45 8c29 901d c02d cf1b dc2d 58c5 c22d
00000270: 00e3 b92d a673 bd2d 9e70 b12d 2658 cd2d
00000280: 52b0 a12d f3ac 982d af99 6029 59cf 7529
00000290: 83cf 7d28 f189 9325 905a 9f29 58b1 8428
000002a0: e8bf b229 fee3 c326 ef6c 3327 eb50 132e
000002b0: 36ed ff2d 39e8 f92d 8d00 1a2e 8d8e 1e2e
000002c0: 940a 182e f330 1b2e 0bb8 252e cbe9 2c2e
000002d0: e699 172e 1865 062e f910 2f2e db13 252e
000002e0: 2d53 292e 26bf 392e b785 112e 3541 242e
000002f0: bcb3 0e2e 5ba4 ad26 8c66 4927 5df0 c929
00000300: b0e1 f324 2239 c329 ae31 9a27 3272 4328
00000310: 52b1 8429 04d7 2c28 cd2a a22d d552 bf2d
00000320: f87a d42d ed47 ac2d 9784 bf2d 4b44 cf2d
00000330: bfc4 c82d 5102 ba2d 7554 b42d 5f74 f825
00000340: 64df a827 a792 c929 ba44 7b26 f788 3d29
00000350: 6b8f 9029 17a7 8025 3a85 cf28 ea37 c527
00000360: 436d 0f27 a9b3 8227 3ae5 6c28 102c c527
00000370: f82e 3628 5fd7 9827 88ff ad27 d62e 4829
00000380: d616 e828 c626 d32d d567 c62d fcd6 b62d
00000390: 102d dc2d 029f e62d 7d89 cd2d b553 c82d
000003a0: f4a1 f82d 6c71 072e 4c53 6f2e 544b 842e
000003b0: 3f6a a72e aaeb a12e 98b4 aa2e 0cd8 b32e
000003c0: 30aa a82e 7d40 b72e dca2 cd2e 6312 9a2a
000003d0: cdda 9a2a 68ff 9e2a 9895 e02a e126 832a
000003e0: 5757 9d2a f15e a625 e4b2 aa29 9b78 3d29
000003f0: 674d a52d 8cb4 8c2d 3b8e 7b2d 2be7 982d

exp_avg f4 [128]
8.6840515e-07 -5.5896874e-07 -2.8493816e-15 -1.2766976e-10 -5.9422582e-08 7.4509643e-07 8.3969655e-07 -4.729604e-12
7.55916e-08 8.315483e-14 1.0547687e-06 -1.4568032e-14 3.7583132e-07 -1.620828e-08 -1.3945983e-07 8.22229e-07
2.5238338e-15 1.0549013e-06 6.6522406e-15 2.6368264e-07 1.6221662e-06 5.0736183e-14 4.576983e-07 -3.5066968e-14
-1.4931346e-14 6.563491e-08 7.011431e-07 -1.8170788e-14 -7.6400134e-08 -2.0660585e-07 -6.6385818e-15 -1.7543306e-13
1.2058591e-07 -3.142854e-07 1.6927385e-06 2.1761811e-07 -2.8059838e-15 -5.037384e-07 -8.614733e-07 2.0724012e-13
1.306651e-13 1.4399032e-08 -8.3150195e-07 1.3315872e-06 -1.9395674e-07 3.8783315e-07 6.4592393e-07 9.020739e-08
7.2671327e-07 -6.9680755e-07 2.7712392e-07 -6.094376e-14 6.727e-16 5.1153894e-13 -3.8302267e-07 3.7687298e-07
5.671716e-07 -9.1962346e-07 1.5870803e-06 1.1407512e-06 -5.2374965e-15 1.5314646e-09 7.764792e-15 2.4486202e-08
9.2087305e-07 8.3733594e-15 7.31764e-07 -8.837876e-14 -3.8252832e-13 6.4724e-08 -2.605757e-07 6.1620746e-08
-5.071323e-07 4.036122e-08 -1.0542343e-06 7.2698976e-09 8.77106e-07 1.3820438e-13 -4.5823984e-07 -9.621654e-14
2.850152e-07 -2.8167656e-07 2.7021397e-07 4.868628e-07 2.008038e-12 3.74374e-07 1.383301e-07 3.101695e-07
3.0126643e-07 2.8808514e-15 1.7968159e-13 7.69655e-07 -3.1473232e-13 3.982551e-07 -8.670474e-07 3.2840853e-07
5.8613915e-07 8.864287e-07 -1.4323465e-08 5.161005e-07 1.3444273e-14 -1.1516207e-07 6.556161e-14 8.2160193e-07
9.5802855e-14 -4.616712e-14 -2.7079972e-07 3.864176e-13 9.416168e-13 7.228932e-14 7.098166e-07 -7.1960706e-08
-6.8354364e-11 6.861219e-07 1.0307899e-06 7.6983537e-07 1.0126996e-06 7.0295994e-07 -1.5800312e-06 -2.8712855e-16
1.6129898e-06 -1.3052624e-11 -3.819087e-12 -3.5195328e-07 8.3387914e-07 -6.441434e-10 -4.9651874e-07 -1.3436867e-06
00000000: 591c 6935 0a0c 16b5 d051 4da7 d85f 0caf
00000010: d237 7fb3 a302 4835 8267 6135 7c68 a6ac
00000020: ec54 a233 7f3f bb29 9491 8d35 9837 83a8
00000030: ddc5 c934 623a 8bb2 6dbe 15b4 26b7 5c35
00000040: 84dc 3527 2296 8d35 17ac ef27 4490 8d34
00000050: 35b9 d935 d67e 6429 93b9 f534 76ed 1da9
00000060: 577d 86a8 2cf3 8c33 3036 3c35 fcaa a3a8
00000070: 6b11 a4b3 62d7 5db4 1c2e efa7 2385 45aa
00000080: 677a 0134 0ebb a8b4 0d32 e335 69aa 6934
00000090: 4431 4aa7 a438 07b5 ff3f 67b5 e654 692a
000000a0: a71d 132a 9d5f 7732 6134 5fb5 fdb8 b235
000000b0: 6c42 50b4 6237 d034 8e63 2d35 09b8 c133
000000c0: 5b13 4335 400c 3bb5 9fc7 9434 b03b 89a9
000000d0: 80e4 4126 44fc 0f2b 3ca2 cdb4 0755 ca34
000000e0: bc3f 1835 0bdc 76b5 aa03 d535 ea1b 9935
000000f0: 61b3 bca7 9f7b d230 c8e0 0b28 ba55 d232
00000100: ea31 7735 4ed7 1628 706e 4435 e302 c7a9
00000110: 2458 d7aa 65fe 8a33 40e5 8bb4 5d54 8433
00000120: de21 08b5 a159 2d33 377f 8db5 b2ca f931
00000130: 4472 6b35 b39a 1b2a 0104 f6b4 0fa9 d8a9
00000140: 3104 9934 5539 97b4 ed11 9134 f5b0 0235
00000150: 994d 0d2c 92fd c834 e387 1434 5f85 a634
00000160: bebd a134 5496 4f27 b14d 4a2a 4a9a 4e35
00000170: b52d b1aa c4cf d534 0bbf 68b5 2050 b034
00000180: 2d57 1d35 ebf2 6d35 4413 76b2 288a 0a35
00000190: c430 7228 044f f7b3 b2a1 9329 0e8c 5c35
000001a0: 96ba d729 11eb 4fa9 6e62 91b4 a588 d92a
000001b0: 5285 842b f5c7 a229 3a8a 3e35 d188 9ab3
000001c0: 1650 96ae f02d 3835 ac59 8a35 afa6 4e35
000001d0: 18ec 8735 0ab3 3c35 7511 d4b5 b284 a5a5
000001e0: e87d d835 cb9f 65ad 475f 86ac 17f4 bcb4
000001f0: bdd7 5f35 900f 31b0 8248 05b5 b958 b4b5
